program(1.0)
[buildInfo = dict<tensor<string, []>, tensor<string, []>>({{"coremlc-component-MIL", "3500.14.1"}, {"coremlc-version", "3500.32.1"}, {"coremltools-component-torch", "2.8.0+cu126"}, {"coremltools-source-dialect", "TorchScript"}, {"coremltools-version", "9.0"}})]
{
    func main<ios15>(tensor<fp32, [1, 3, 640, 640]> image) {
            tensor<fp32, []> image__scaled___y_0 = const()[name = tensor<string, []>("image__scaled___y_0"), val = tensor<fp32, []>(0x1.010102p-8)];
            tensor<fp32, [1, 3, 640, 640]> image__scaled__ = mul(x = image, y = image__scaled___y_0)[name = tensor<string, []>("image__scaled__")];
            tensor<int32, []> var_11 = const()[name = tensor<string, []>("op_11"), val = tensor<int32, []>(-1)];
            tensor<int32, []> var_23 = const()[name = tensor<string, []>("op_23"), val = tensor<int32, []>(1)];
            tensor<int32, []> var_24 = const()[name = tensor<string, []>("op_24"), val = tensor<int32, []>(2)];
            tensor<string, []> input_1_pad_type_0 = const()[name = tensor<string, []>("input_1_pad_type_0"), val = tensor<string, []>("custom")];
            tensor<int32, [4]> input_1_pad_0 = const()[name = tensor<string, []>("input_1_pad_0"), val = tensor<int32, [4]>([1, 1, 1, 1])];
            tensor<int32, [2]> input_1_strides_0 = const()[name = tensor<string, []>("input_1_strides_0"), val = tensor<int32, [2]>([2, 2])];
            tensor<int32, [2]> input_1_dilations_0 = const()[name = tensor<string, []>("input_1_dilations_0"), val = tensor<int32, [2]>([1, 1])];
            tensor<int32, []> input_1_groups_0 = const()[name = tensor<string, []>("input_1_groups_0"), val = tensor<int32, []>(1)];
            tensor<string, []> image_to_fp16_dtype_0 = const()[name = tensor<string, []>("image_to_fp16_dtype_0"), val = tensor<string, []>("fp16")];
            tensor<fp16, [32, 3, 3, 3]> model_model_0_conv_weight_to_fp16 = const()[name = tensor<string, []>("model_model_0_conv_weight_to_fp16"), val = tensor<fp16, [32, 3, 3, 3]>(BLOBFILE(path = tensor<string, []>("@model_path/weights/weight.bin"), offset = tensor<uint64, []>(64)))];
            tensor<fp16, [32]> model_model_0_conv_bias_to_fp16 = const()[name = tensor<string, []>("model_model_0_conv_bias_to_fp16"), val = tensor<fp16, [32]>(BLOBFILE(path = tensor<string, []>("@model_path/weights/weight.bin"), offset = tensor<uint64, []>(1856)))];
            tensor<fp16, [1, 3, 640, 640]> image_to_fp16 = cast(dtype = image_to_fp16_dtype_0, x = image__scaled__)[name = tensor<string, []>("cast_12")];
            tensor<fp16, [1, 32, 320, 320]> input_1_cast_fp16 = conv(bias = model_model_0_conv_bias_to_fp16, dilations = input_1_dilations_0, groups = input_1_groups_0, pad = input_1_pad_0, pad_type = input_1_pad_type_0, strides = input_1_strides_0, weight = model_model_0_conv_weight_to_fp16, x = image_to_fp16)[name = tensor<string, []>("input_1_cast_fp16")];
            tensor<fp16, [1, 32, 320, 320]> input_3_cast_fp16 = silu(x = input_1_cast_fp16)[name = tensor<string, []>("input_3_cast_fp16")];
            tensor<string, []> input_5_pad_type_0 = const()[name = tensor<string, []>("input_5_pad_type_0"), val = tensor<string, []>("custom")];
            tensor<int32, [4]> input_5_pad_0 = const()[name = tensor<string, []>("input_5_pad_0"), val = tensor<int32, [4]>([1, 1, 1, 1])];
            tensor<int32, [2]> input_5_strides_0 = const()[name = tensor<string, []>("input_5_strides_0"), val = tensor<int32, [2]>([2, 2])];
            tensor<int32, [2]> input_5_dilations_0 = const()[name = tensor<string, []>("input_5_dilations_0"), val = tensor<int32, [2]>([1, 1])];
            tensor<int32, []> input_5_groups_0 = const()[name = tensor<string, []>("input_5_groups_0"), val = tensor<int32, []>(1)];
            tensor<fp16, [64, 32, 3, 3]> model_model_1_conv_weight_to_fp16 = const()[name = tensor<string, []>("model_model_1_conv_weight_to_fp16"), val = tensor<fp16, [64, 32, 3, 3]>(BLOBFILE(path = tensor<string, []>("@model_path/weights/weight.bin"), offset = tensor<uint64, []>(1984)))];
            tensor<fp16, [64]> model_model_1_conv_bias_to_fp16 = const()[name = tensor<string, []>("model_model_1_conv_bias_to_fp16"), val = tensor<fp16, [64]>(BLOBFILE(path = tensor<string, []>("@model_path/weights/weight.bin"), offset = tensor<uint64, []>(38912)))];
            tensor<fp16, [1, 64, 160, 160]> input_5_cast_fp16 = conv(bias = model_model_1_conv_bias_to_fp16, dilations = input_5_dilations_0, groups = input_5_groups_0, pad = input_5_pad_0, pad_type = input_5_pad_type_0, strides = input_5_strides_0, weight = model_model_1_conv_weight_to_fp16, x = input_3_cast_fp16)[name = tensor<string, []>("input_5_cast_fp16")];
            tensor<fp16, [1, 64, 160, 160]> input_7_cast_fp16 = silu(x = input_5_cast_fp16)[name = tensor<string, []>("input_7_cast_fp16")];
            tensor<string, []> input_9_pad_type_0 = const()[name = tensor<string, []>("input_9_pad_type_0"), val = tensor<string, []>("valid")];
            tensor<int32, [2]> input_9_strides_0 = const()[name = tensor<string, []>("input_9_strides_0"), val = tensor<int32, [2]>([1, 1])];
            tensor<int32, [4]> input_9_pad_0 = const()[name = tensor<string, []>("input_9_pad_0"), val = tensor<int32, [4]>([0, 0, 0, 0])];
            tensor<int32, [2]> input_9_dilations_0 = const()[name = tensor<string, []>("input_9_dilations_0"), val = tensor<int32, [2]>([1, 1])];
            tensor<int32, []> input_9_groups_0 = const()[name = tensor<string, []>("input_9_groups_0"), val = tensor<int32, []>(1)];
            tensor<fp16, [64, 64, 1, 1]> model_model_2_cv1_conv_weight_to_fp16 = const()[name = tensor<string, []>("model_model_2_cv1_conv_weight_to_fp16"), val = tensor<fp16, [64, 64, 1, 1]>(BLOBFILE(path = tensor<string, []>("@model_path/weights/weight.bin"), offset = tensor<uint64, []>(39104)))];
            tensor<fp16, [64]> model_model_2_cv1_conv_bias_to_fp16 = const()[name = tensor<string, []>("model_model_2_cv1_conv_bias_to_fp16"), val = tensor<fp16, [64]>(BLOBFILE(path = tensor<string, []>("@model_path/weights/weight.bin"), offset = tensor<uint64, []>(47360)))];
            tensor<fp16, [1, 64, 160, 160]> input_9_cast_fp16 = conv(bias = model_model_2_cv1_conv_bias_to_fp16, dilations = input_9_dilations_0, groups = input_9_groups_0, pad = input_9_pad_0, pad_type = input_9_pad_type_0, strides = input_9_strides_0, weight = model_model_2_cv1_conv_weight_to_fp16, x = input_7_cast_fp16)[name = tensor<string, []>("input_9_cast_fp16")];
            tensor<fp16, [1, 64, 160, 160]> var_91_cast_fp16 = silu(x = input_9_cast_fp16)[name = tensor<string, []>("op_91_cast_fp16")];
            tensor<int32, [2]> var_92 = const()[name = tensor<string, []>("op_92"), val = tensor<int32, [2]>([32, 32])];
            tensor<int32, []> var_93_axis_0 = const()[name = tensor<string, []>("op_93_axis_0"), val = tensor<int32, []>(1)];
            tensor<fp16, [1, 32, 160, 160]> var_93_cast_fp16_0, tensor<fp16, [1, 32, 160, 160]> var_93_cast_fp16_1 = split(axis = var_93_axis_0, split_sizes = var_92, x = var_91_cast_fp16)[name = tensor<string, []>("op_93_cast_fp16")];
            tensor<string, []> input_13_pad_type_0 = const()[name = tensor<string, []>("input_13_pad_type_0"), val = tensor<string, []>("custom")];
            tensor<int32, [4]> input_13_pad_0 = const()[name = tensor<string, []>("input_13_pad_0"), val = tensor<int32, [4]>([1, 1, 1, 1])];
            tensor<int32, [2]> input_13_strides_0 = const()[name = tensor<string, []>("input_13_strides_0"), val = tensor<int32, [2]>([1, 1])];
            tensor<int32, [2]> input_13_dilations_0 = const()[name = tensor<string, []>("input_13_dilations_0"), val = tensor<int32, [2]>([1, 1])];
            tensor<int32, []> input_13_groups_0 = const()[name = tensor<string, []>("input_13_groups_0"), val = tensor<int32, []>(1)];
            tensor<fp16, [16, 32, 3, 3]> model_model_2_m_0_cv1_conv_weight_to_fp16 = const()[name = tensor<string, []>("model_model_2_m_0_cv1_conv_weight_to_fp16"), val = tensor<fp16, [16, 32, 3, 3]>(BLOBFILE(path = tensor<string, []>("@model_path/weights/weight.bin"), offset = tensor<uint64, []>(47552)))];
            tensor<fp16, [16]> model_model_2_m_0_cv1_conv_bias_to_fp16 = const()[name = tensor<string, []>("model_model_2_m_0_cv1_conv_bias_to_fp16"), val = tensor<fp16, [16]>(BLOBFILE(path = tensor<string, []>("@model_path/weights/weight.bin"), offset = tensor<uint64, []>(56832)))];
            tensor<fp16, [1, 16, 160, 160]> input_13_cast_fp16 = conv(bias = model_model_2_m_0_cv1_conv_bias_to_fp16, dilations = input_13_dilations_0, groups = input_13_groups_0, pad = input_13_pad_0, pad_type = input_13_pad_type_0, strides = input_13_strides_0, weight = model_model_2_m_0_cv1_conv_weight_to_fp16, x = var_93_cast_fp16_1)[name = tensor<string, []>("input_13_cast_fp16")];
            tensor<fp16, [1, 16, 160, 160]> input_15_cast_fp16 = silu(x = input_13_cast_fp16)[name = tensor<string, []>("input_15_cast_fp16")];
            tensor<string, []> input_17_pad_type_0 = const()[name = tensor<string, []>("input_17_pad_type_0"), val = tensor<string, []>("custom")];
            tensor<int32, [4]> input_17_pad_0 = const()[name = tensor<string, []>("input_17_pad_0"), val = tensor<int32, [4]>([1, 1, 1, 1])];
            tensor<int32, [2]> input_17_strides_0 = const()[name = tensor<string, []>("input_17_strides_0"), val = tensor<int32, [2]>([1, 1])];
            tensor<int32, [2]> input_17_dilations_0 = const()[name = tensor<string, []>("input_17_dilations_0"), val = tensor<int32, [2]>([1, 1])];
            tensor<int32, []> input_17_groups_0 = const()[name = tensor<string, []>("input_17_groups_0"), val = tensor<int32, []>(1)];
            tensor<fp16, [32, 16, 3, 3]> model_model_2_m_0_cv2_conv_weight_to_fp16 = const()[name = tensor<string, []>("model_model_2_m_0_cv2_conv_weight_to_fp16"), val = tensor<fp16, [32, 16, 3, 3]>(BLOBFILE(path = tensor<string, []>("@model_path/weights/weight.bin"), offset = tensor<uint64, []>(56960)))];
            tensor<fp16, [32]> model_model_2_m_0_cv2_conv_bias_to_fp16 = const()[name = tensor<string, []>("model_model_2_m_0_cv2_conv_bias_to_fp16"), val = tensor<fp16, [32]>(BLOBFILE(path = tensor<string, []>("@model_path/weights/weight.bin"), offset = tensor<uint64, []>(66240)))];
            tensor<fp16, [1, 32, 160, 160]> input_17_cast_fp16 = conv(bias = model_model_2_m_0_cv2_conv_bias_to_fp16, dilations = input_17_dilations_0, groups = input_17_groups_0, pad = input_17_pad_0, pad_type = input_17_pad_type_0, strides = input_17_strides_0, weight = model_model_2_m_0_cv2_conv_weight_to_fp16, x = input_15_cast_fp16)[name = tensor<string, []>("input_17_cast_fp16")];
            tensor<fp16, [1, 32, 160, 160]> var_115_cast_fp16 = silu(x = input_17_cast_fp16)[name = tensor<string, []>("op_115_cast_fp16")];
            tensor<fp16, [1, 32, 160, 160]> var_116_cast_fp16 = add(x = var_93_cast_fp16_1, y = var_115_cast_fp16)[name = tensor<string, []>("op_116_cast_fp16")];
            tensor<bool, []> input_19_interleave_0 = const()[name = tensor<string, []>("input_19_interleave_0"), val = tensor<bool, []>(false)];
            tensor<fp16, [1, 96, 160, 160]> input_19_cast_fp16 = concat(axis = var_23, interleave = input_19_interleave_0, values = (var_93_cast_fp16_0, var_93_cast_fp16_1, var_116_cast_fp16))[name = tensor<string, []>("input_19_cast_fp16")];
            tensor<string, []> input_21_pad_type_0 = const()[name = tensor<string, []>("input_21_pad_type_0"), val = tensor<string, []>("valid")];
            tensor<int32, [2]> input_21_strides_0 = const()[name = tensor<string, []>("input_21_strides_0"), val = tensor<int32, [2]>([1, 1])];
            tensor<int32, [4]> input_21_pad_0 = const()[name = tensor<string, []>("input_21_pad_0"), val = tensor<int32, [4]>([0, 0, 0, 0])];
            tensor<int32, [2]> input_21_dilations_0 = const()[name = tensor<string, []>("input_21_dilations_0"), val = tensor<int32, [2]>([1, 1])];
            tensor<int32, []> input_21_groups_0 = const()[name = tensor<string, []>("input_21_groups_0"), val = tensor<int32, []>(1)];
            tensor<fp16, [128, 96, 1, 1]> model_model_2_cv2_conv_weight_to_fp16 = const()[name = tensor<string, []>("model_model_2_cv2_conv_weight_to_fp16"), val = tensor<fp16, [128, 96, 1, 1]>(BLOBFILE(path = tensor<string, []>("@model_path/weights/weight.bin"), offset = tensor<uint64, []>(66368)))];
            tensor<fp16, [128]> model_model_2_cv2_conv_bias_to_fp16 = const()[name = tensor<string, []>("model_model_2_cv2_conv_bias_to_fp16"), val = tensor<fp16, [128]>(BLOBFILE(path = tensor<string, []>("@model_path/weights/weight.bin"), offset = tensor<uint64, []>(91008)))];
            tensor<fp16, [1, 128, 160, 160]> input_21_cast_fp16 = conv(bias = model_model_2_cv2_conv_bias_to_fp16, dilations = input_21_dilations_0, groups = input_21_groups_0, pad = input_21_pad_0, pad_type = input_21_pad_type_0, strides = input_21_strides_0, weight = model_model_2_cv2_conv_weight_to_fp16, x = input_19_cast_fp16)[name = tensor<string, []>("input_21_cast_fp16")];
            tensor<fp16, [1, 128, 160, 160]> input_23_cast_fp16 = silu(x = input_21_cast_fp16)[name = tensor<string, []>("input_23_cast_fp16")];
            tensor<string, []> input_25_pad_type_0 = const()[name = tensor<string, []>("input_25_pad_type_0"), val = tensor<string, []>("custom")];
            tensor<int32, [4]> input_25_pad_0 = const()[name = tensor<string, []>("input_25_pad_0"), val = tensor<int32, [4]>([1, 1, 1, 1])];
            tensor<int32, [2]> input_25_strides_0 = const()[name = tensor<string, []>("input_25_strides_0"), val = tensor<int32, [2]>([2, 2])];
            tensor<int32, [2]> input_25_dilations_0 = const()[name = tensor<string, []>("input_25_dilations_0"), val = tensor<int32, [2]>([1, 1])];
            tensor<int32, []> input_25_groups_0 = const()[name = tensor<string, []>("input_25_groups_0"), val = tensor<int32, []>(1)];
            tensor<fp16, [128, 128, 3, 3]> model_model_3_conv_weight_to_fp16 = const()[name = tensor<string, []>("model_model_3_conv_weight_to_fp16"), val = tensor<fp16, [128, 128, 3, 3]>(BLOBFILE(path = tensor<string, []>("@model_path/weights/weight.bin"), offset = tensor<uint64, []>(91328)))];
            tensor<fp16, [128]> model_model_3_conv_bias_to_fp16 = const()[name = tensor<string, []>("model_model_3_conv_bias_to_fp16"), val = tensor<fp16, [128]>(BLOBFILE(path = tensor<string, []>("@model_path/weights/weight.bin"), offset = tensor<uint64, []>(386304)))];
            tensor<fp16, [1, 128, 80, 80]> input_25_cast_fp16 = conv(bias = model_model_3_conv_bias_to_fp16, dilations = input_25_dilations_0, groups = input_25_groups_0, pad = input_25_pad_0, pad_type = input_25_pad_type_0, strides = input_25_strides_0, weight = model_model_3_conv_weight_to_fp16, x = input_23_cast_fp16)[name = tensor<string, []>("input_25_cast_fp16")];
            tensor<fp16, [1, 128, 80, 80]> input_27_cast_fp16 = silu(x = input_25_cast_fp16)[name = tensor<string, []>("input_27_cast_fp16")];
            tensor<string, []> input_29_pad_type_0 = const()[name = tensor<string, []>("input_29_pad_type_0"), val = tensor<string, []>("valid")];
            tensor<int32, [2]> input_29_strides_0 = const()[name = tensor<string, []>("input_29_strides_0"), val = tensor<int32, [2]>([1, 1])];
            tensor<int32, [4]> input_29_pad_0 = const()[name = tensor<string, []>("input_29_pad_0"), val = tensor<int32, [4]>([0, 0, 0, 0])];
            tensor<int32, [2]> input_29_dilations_0 = const()[name = tensor<string, []>("input_29_dilations_0"), val = tensor<int32, [2]>([1, 1])];
            tensor<int32, []> input_29_groups_0 = const()[name = tensor<string, []>("input_29_groups_0"), val = tensor<int32, []>(1)];
            tensor<fp16, [128, 128, 1, 1]> model_model_4_cv1_conv_weight_to_fp16 = const()[name = tensor<string, []>("model_model_4_cv1_conv_weight_to_fp16"), val = tensor<fp16, [128, 128, 1, 1]>(BLOBFILE(path = tensor<string, []>("@model_path/weights/weight.bin"), offset = tensor<uint64, []>(386624)))];
            tensor<fp16, [128]> model_model_4_cv1_conv_bias_to_fp16 = const()[name = tensor<string, []>("model_model_4_cv1_conv_bias_to_fp16"), val = tensor<fp16, [128]>(BLOBFILE(path = tensor<string, []>("@model_path/weights/weight.bin"), offset = tensor<uint64, []>(419456)))];
            tensor<fp16, [1, 128, 80, 80]> input_29_cast_fp16 = conv(bias = model_model_4_cv1_conv_bias_to_fp16, dilations = input_29_dilations_0, groups = input_29_groups_0, pad = input_29_pad_0, pad_type = input_29_pad_type_0, strides = input_29_strides_0, weight = model_model_4_cv1_conv_weight_to_fp16, x = input_27_cast_fp16)[name = tensor<string, []>("input_29_cast_fp16")];
            tensor<fp16, [1, 128, 80, 80]> var_149_cast_fp16 = silu(x = input_29_cast_fp16)[name = tensor<string, []>("op_149_cast_fp16")];
            tensor<int32, [2]> var_150 = const()[name = tensor<string, []>("op_150"), val = tensor<int32, [2]>([64, 64])];
            tensor<int32, []> var_151_axis_0 = const()[name = tensor<string, []>("op_151_axis_0"), val = tensor<int32, []>(1)];
            tensor<fp16, [1, 64, 80, 80]> var_151_cast_fp16_0, tensor<fp16, [1, 64, 80, 80]> var_151_cast_fp16_1 = split(axis = var_151_axis_0, split_sizes = var_150, x = var_149_cast_fp16)[name = tensor<string, []>("op_151_cast_fp16")];
            tensor<string, []> input_33_pad_type_0 = const()[name = tensor<string, []>("input_33_pad_type_0"), val = tensor<string, []>("custom")];
            tensor<int32, [4]> input_33_pad_0 = const()[name = tensor<string, []>("input_33_pad_0"), val = tensor<int32, [4]>([1, 1, 1, 1])];
            tensor<int32, [2]> input_33_strides_0 = const()[name = tensor<string, []>("input_33_strides_0"), val = tensor<int32, [2]>([1, 1])];
            tensor<int32, [2]> input_33_dilations_0 = const()[name = tensor<string, []>("input_33_dilations_0"), val = tensor<int32, [2]>([1, 1])];
            tensor<int32, []> input_33_groups_0 = const()[name = tensor<string, []>("input_33_groups_0"), val = tensor<int32, []>(1)];
            tensor<fp16, [32, 64, 3, 3]> model_model_4_m_0_cv1_conv_weight_to_fp16 = const()[name = tensor<string, []>("model_model_4_m_0_cv1_conv_weight_to_fp16"), val = tensor<fp16, [32, 64, 3, 3]>(BLOBFILE(path = tensor<string, []>("@model_path/weights/weight.bin"), offset = tensor<uint64, []>(419776)))];
            tensor<fp16, [32]> model_model_4_m_0_cv1_conv_bias_to_fp16 = const()[name = tensor<string, []>("model_model_4_m_0_cv1_conv_bias_to_fp16"), val = tensor<fp16, [32]>(BLOBFILE(path = tensor<string, []>("@model_path/weights/weight.bin"), offset = tensor<uint64, []>(456704)))];
            tensor<fp16, [1, 32, 80, 80]> input_33_cast_fp16 = conv(bias = model_model_4_m_0_cv1_conv_bias_to_fp16, dilations = input_33_dilations_0, groups = input_33_groups_0, pad = input_33_pad_0, pad_type = input_33_pad_type_0, strides = input_33_strides_0, weight = model_model_4_m_0_cv1_conv_weight_to_fp16, x = var_151_cast_fp16_1)[name = tensor<string, []>("input_33_cast_fp16")];
            tensor<fp16, [1, 32, 80, 80]> input_35_cast_fp16 = silu(x = input_33_cast_fp16)[name = tensor<string, []>("input_35_cast_fp16")];
            tensor<string, []> input_37_pad_type_0 = const()[name = tensor<string, []>("input_37_pad_type_0"), val = tensor<string, []>("custom")];
            tensor<int32, [4]> input_37_pad_0 = const()[name = tensor<string, []>("input_37_pad_0"), val = tensor<int32, [4]>([1, 1, 1, 1])];
            tensor<int32, [2]> input_37_strides_0 = const()[name = tensor<string, []>("input_37_strides_0"), val = tensor<int32, [2]>([1, 1])];
            tensor<int32, [2]> input_37_dilations_0 = const()[name = tensor<string, []>("input_37_dilations_0"), val = tensor<int32, [2]>([1, 1])];
            tensor<int32, []> input_37_groups_0 = const()[name = tensor<string, []>("input_37_groups_0"), val = tensor<int32, []>(1)];
            tensor<fp16, [64, 32, 3, 3]> model_model_4_m_0_cv2_conv_weight_to_fp16 = const()[name = tensor<string, []>("model_model_4_m_0_cv2_conv_weight_to_fp16"), val = tensor<fp16, [64, 32, 3, 3]>(BLOBFILE(path = tensor<string, []>("@model_path/weights/weight.bin"), offset = tensor<uint64, []>(456832)))];
            tensor<fp16, [64]> model_model_4_m_0_cv2_conv_bias_to_fp16 = const()[name = tensor<string, []>("model_model_4_m_0_cv2_conv_bias_to_fp16"), val = tensor<fp16, [64]>(BLOBFILE(path = tensor<string, []>("@model_path/weights/weight.bin"), offset = tensor<uint64, []>(493760)))];
            tensor<fp16, [1, 64, 80, 80]> input_37_cast_fp16 = conv(bias = model_model_4_m_0_cv2_conv_bias_to_fp16, dilations = input_37_dilations_0, groups = input_37_groups_0, pad = input_37_pad_0, pad_type = input_37_pad_type_0, strides = input_37_strides_0, weight = model_model_4_m_0_cv2_conv_weight_to_fp16, x = input_35_cast_fp16)[name = tensor<string, []>("input_37_cast_fp16")];
            tensor<fp16, [1, 64, 80, 80]> var_173_cast_fp16 = silu(x = input_37_cast_fp16)[name = tensor<string, []>("op_173_cast_fp16")];
            tensor<fp16, [1, 64, 80, 80]> var_174_cast_fp16 = add(x = var_151_cast_fp16_1, y = var_173_cast_fp16)[name = tensor<string, []>("op_174_cast_fp16")];
            tensor<bool, []> input_39_interleave_0 = const()[name = tensor<string, []>("input_39_interleave_0"), val = tensor<bool, []>(false)];
            tensor<fp16, [1, 192, 80, 80]> input_39_cast_fp16 = concat(axis = var_23, interleave = input_39_interleave_0, values = (var_151_cast_fp16_0, var_151_cast_fp16_1, var_174_cast_fp16))[name = tensor<string, []>("input_39_cast_fp16")];
            tensor<string, []> input_41_pad_type_0 = const()[name = tensor<string, []>("input_41_pad_type_0"), val = tensor<string, []>("valid")];
            tensor<int32, [2]> input_41_strides_0 = const()[name = tensor<string, []>("input_41_strides_0"), val = tensor<int32, [2]>([1, 1])];
            tensor<int32, [4]> input_41_pad_0 = const()[name = tensor<string, []>("input_41_pad_0"), val = tensor<int32, [4]>([0, 0, 0, 0])];
            tensor<int32, [2]> input_41_dilations_0 = const()[name = tensor<string, []>("input_41_dilations_0"), val = tensor<int32, [2]>([1, 1])];
            tensor<int32, []> input_41_groups_0 = const()[name = tensor<string, []>("input_41_groups_0"), val = tensor<int32, []>(1)];
            tensor<fp16, [256, 192, 1, 1]> model_model_4_cv2_conv_weight_to_fp16 = const()[name = tensor<string, []>("model_model_4_cv2_conv_weight_to_fp16"), val = tensor<fp16, [256, 192, 1, 1]>(BLOBFILE(path = tensor<string, []>("@model_path/weights/weight.bin"), offset = tensor<uint64, []>(493952)))];
            tensor<fp16, [256]> model_model_4_cv2_conv_bias_to_fp16 = const()[name = tensor<string, []>("model_model_4_cv2_conv_bias_to_fp16"), val = tensor<fp16, [256]>(BLOBFILE(path = tensor<string, []>("@model_path/weights/weight.bin"), offset = tensor<uint64, []>(592320)))];
            tensor<fp16, [1, 256, 80, 80]> input_41_cast_fp16 = conv(bias = model_model_4_cv2_conv_bias_to_fp16, dilations = input_41_dilations_0, groups = input_41_groups_0, pad = input_41_pad_0, pad_type = input_41_pad_type_0, strides = input_41_strides_0, weight = model_model_4_cv2_conv_weight_to_fp16, x = input_39_cast_fp16)[name = tensor<string, []>("input_41_cast_fp16")];
            tensor<fp16, [1, 256, 80, 80]> input_43_cast_fp16 = silu(x = input_41_cast_fp16)[name = tensor<string, []>("input_43_cast_fp16")];
            tensor<string, []> input_45_pad_type_0 = const()[name = tensor<string, []>("input_45_pad_type_0"), val = tensor<string, []>("custom")];
            tensor<int32, [4]> input_45_pad_0 = const()[name = tensor<string, []>("input_45_pad_0"), val = tensor<int32, [4]>([1, 1, 1, 1])];
            tensor<int32, [2]> input_45_strides_0 = const()[name = tensor<string, []>("input_45_strides_0"), val = tensor<int32, [2]>([2, 2])];
            tensor<int32, [2]> input_45_dilations_0 = const()[name = tensor<string, []>("input_45_dilations_0"), val = tensor<int32, [2]>([1, 1])];
            tensor<int32, []> input_45_groups_0 = const()[name = tensor<string, []>("input_45_groups_0"), val = tensor<int32, []>(1)];
            tensor<fp16, [256, 256, 3, 3]> model_model_5_conv_weight_to_fp16 = const()[name = tensor<string, []>("model_model_5_conv_weight_to_fp16"), val = tensor<fp16, [256, 256, 3, 3]>(BLOBFILE(path = tensor<string, []>("@model_path/weights/weight.bin"), offset = tensor<uint64, []>(592896)))];
            tensor<fp16, [256]> model_model_5_conv_bias_to_fp16 = const()[name = tensor<string, []>("model_model_5_conv_bias_to_fp16"), val = tensor<fp16, [256]>(BLOBFILE(path = tensor<string, []>("@model_path/weights/weight.bin"), offset = tensor<uint64, []>(1772608)))];
            tensor<fp16, [1, 256, 40, 40]> input_45_cast_fp16 = conv(bias = model_model_5_conv_bias_to_fp16, dilations = input_45_dilations_0, groups = input_45_groups_0, pad = input_45_pad_0, pad_type = input_45_pad_type_0, strides = input_45_strides_0, weight = model_model_5_conv_weight_to_fp16, x = input_43_cast_fp16)[name = tensor<string, []>("input_45_cast_fp16")];
            tensor<fp16, [1, 256, 40, 40]> input_47_cast_fp16 = silu(x = input_45_cast_fp16)[name = tensor<string, []>("input_47_cast_fp16")];
            tensor<string, []> input_49_pad_type_0 = const()[name = tensor<string, []>("input_49_pad_type_0"), val = tensor<string, []>("valid")];
            tensor<int32, [2]> input_49_strides_0 = const()[name = tensor<string, []>("input_49_strides_0"), val = tensor<int32, [2]>([1, 1])];
            tensor<int32, [4]> input_49_pad_0 = const()[name = tensor<string, []>("input_49_pad_0"), val = tensor<int32, [4]>([0, 0, 0, 0])];
            tensor<int32, [2]> input_49_dilations_0 = const()[name = tensor<string, []>("input_49_dilations_0"), val = tensor<int32, [2]>([1, 1])];
            tensor<int32, []> input_49_groups_0 = const()[name = tensor<string, []>("input_49_groups_0"), val = tensor<int32, []>(1)];
            tensor<fp16, [256, 256, 1, 1]> model_model_6_cv1_conv_weight_to_fp16 = const()[name = tensor<string, []>("model_model_6_cv1_conv_weight_to_fp16"), val = tensor<fp16, [256, 256, 1, 1]>(BLOBFILE(path = tensor<string, []>("@model_path/weights/weight.bin"), offset = tensor<uint64, []>(1773184)))];
            tensor<fp16, [256]> model_model_6_cv1_conv_bias_to_fp16 = const()[name = tensor<string, []>("model_model_6_cv1_conv_bias_to_fp16"), val = tensor<fp16, [256]>(BLOBFILE(path = tensor<string, []>("@model_path/weights/weight.bin"), offset = tensor<uint64, []>(1904320)))];
            tensor<fp16, [1, 256, 40, 40]> input_49_cast_fp16 = conv(bias = model_model_6_cv1_conv_bias_to_fp16, dilations = input_49_dilations_0, groups = input_49_groups_0, pad = input_49_pad_0, pad_type = input_49_pad_type_0, strides = input_49_strides_0, weight = model_model_6_cv1_conv_weight_to_fp16, x = input_47_cast_fp16)[name = tensor<string, []>("input_49_cast_fp16")];
            tensor<fp16, [1, 256, 40, 40]> var_207_cast_fp16 = silu(x = input_49_cast_fp16)[name = tensor<string, []>("op_207_cast_fp16")];
            tensor<int32, [2]> var_208 = const()[name = tensor<string, []>("op_208"), val = tensor<int32, [2]>([128, 128])];
            tensor<int32, []> var_209_axis_0 = const()[name = tensor<string, []>("op_209_axis_0"), val = tensor<int32, []>(1)];
            tensor<fp16, [1, 128, 40, 40]> var_209_cast_fp16_0, tensor<fp16, [1, 128, 40, 40]> var_209_cast_fp16_1 = split(axis = var_209_axis_0, split_sizes = var_208, x = var_207_cast_fp16)[name = tensor<string, []>("op_209_cast_fp16")];
            tensor<string, []> input_53_pad_type_0 = const()[name = tensor<string, []>("input_53_pad_type_0"), val = tensor<string, []>("valid")];
            tensor<int32, [2]> input_53_strides_0 = const()[name = tensor<string, []>("input_53_strides_0"), val = tensor<int32, [2]>([1, 1])];
            tensor<int32, [4]> input_53_pad_0 = const()[name = tensor<string, []>("input_53_pad_0"), val = tensor<int32, [4]>([0, 0, 0, 0])];
            tensor<int32, [2]> input_53_dilations_0 = const()[name = tensor<string, []>("input_53_dilations_0"), val = tensor<int32, [2]>([1, 1])];
            tensor<int32, []> input_53_groups_0 = const()[name = tensor<string, []>("input_53_groups_0"), val = tensor<int32, []>(1)];
            tensor<fp16, [64, 128, 1, 1]> model_model_6_m_0_cv1_conv_weight_to_fp16 = const()[name = tensor<string, []>("model_model_6_m_0_cv1_conv_weight_to_fp16"), val = tensor<fp16, [64, 128, 1, 1]>(BLOBFILE(path = tensor<string, []>("@model_path/weights/weight.bin"), offset = tensor<uint64, []>(1904896)))];
            tensor<fp16, [64]> model_model_6_m_0_cv1_conv_bias_to_fp16 = const()[name = tensor<string, []>("model_model_6_m_0_cv1_conv_bias_to_fp16"), val = tensor<fp16, [64]>(BLOBFILE(path = tensor<string, []>("@model_path/weights/weight.bin"), offset = tensor<uint64, []>(1921344)))];
            tensor<fp16, [1, 64, 40, 40]> input_53_cast_fp16 = conv(bias = model_model_6_m_0_cv1_conv_bias_to_fp16, dilations = input_53_dilations_0, groups = input_53_groups_0, pad = input_53_pad_0, pad_type = input_53_pad_type_0, strides = input_53_strides_0, weight = model_model_6_m_0_cv1_conv_weight_to_fp16, x = var_209_cast_fp16_1)[name = tensor<string, []>("input_53_cast_fp16")];
            tensor<fp16, [1, 64, 40, 40]> input_55_cast_fp16 = silu(x = input_53_cast_fp16)[name = tensor<string, []>("input_55_cast_fp16")];
            tensor<string, []> input_57_pad_type_0 = const()[name = tensor<string, []>("input_57_pad_type_0"), val = tensor<string, []>("custom")];
            tensor<int32, [4]> input_57_pad_0 = const()[name = tensor<string, []>("input_57_pad_0"), val = tensor<int32, [4]>([1, 1, 1, 1])];
            tensor<int32, [2]> input_57_strides_0 = const()[name = tensor<string, []>("input_57_strides_0"), val = tensor<int32, [2]>([1, 1])];
            tensor<int32, [2]> input_57_dilations_0 = const()[name = tensor<string, []>("input_57_dilations_0"), val = tensor<int32, [2]>([1, 1])];
            tensor<int32, []> input_57_groups_0 = const()[name = tensor<string, []>("input_57_groups_0"), val = tensor<int32, []>(1)];
            tensor<fp16, [64, 64, 3, 3]> model_model_6_m_0_m_0_cv1_conv_weight_to_fp16 = const()[name = tensor<string, []>("model_model_6_m_0_m_0_cv1_conv_weight_to_fp16"), val = tensor<fp16, [64, 64, 3, 3]>(BLOBFILE(path = tensor<string, []>("@model_path/weights/weight.bin"), offset = tensor<uint64, []>(1921536)))];
            tensor<fp16, [64]> model_model_6_m_0_m_0_cv1_conv_bias_to_fp16 = const()[name = tensor<string, []>("model_model_6_m_0_m_0_cv1_conv_bias_to_fp16"), val = tensor<fp16, [64]>(BLOBFILE(path = tensor<string, []>("@model_path/weights/weight.bin"), offset = tensor<uint64, []>(1995328)))];
            tensor<fp16, [1, 64, 40, 40]> input_57_cast_fp16 = conv(bias = model_model_6_m_0_m_0_cv1_conv_bias_to_fp16, dilations = input_57_dilations_0, groups = input_57_groups_0, pad = input_57_pad_0, pad_type = input_57_pad_type_0, strides = input_57_strides_0, weight = model_model_6_m_0_m_0_cv1_conv_weight_to_fp16, x = input_55_cast_fp16)[name = tensor<string, []>("input_57_cast_fp16")];
            tensor<fp16, [1, 64, 40, 40]> input_59_cast_fp16 = silu(x = input_57_cast_fp16)[name = tensor<string, []>("input_59_cast_fp16")];
            tensor<string, []> input_61_pad_type_0 = const()[name = tensor<string, []>("input_61_pad_type_0"), val = tensor<string, []>("custom")];
            tensor<int32, [4]> input_61_pad_0 = const()[name = tensor<string, []>("input_61_pad_0"), val = tensor<int32, [4]>([1, 1, 1, 1])];
            tensor<int32, [2]> input_61_strides_0 = const()[name = tensor<string, []>("input_61_strides_0"), val = tensor<int32, [2]>([1, 1])];
            tensor<int32, [2]> input_61_dilations_0 = const()[name = tensor<string, []>("input_61_dilations_0"), val = tensor<int32, [2]>([1, 1])];
            tensor<int32, []> input_61_groups_0 = const()[name = tensor<string, []>("input_61_groups_0"), val = tensor<int32, []>(1)];
            tensor<fp16, [64, 64, 3, 3]> model_model_6_m_0_m_0_cv2_conv_weight_to_fp16 = const()[name = tensor<string, []>("model_model_6_m_0_m_0_cv2_conv_weight_to_fp16"), val = tensor<fp16, [64, 64, 3, 3]>(BLOBFILE(path = tensor<string, []>("@model_path/weights/weight.bin"), offset = tensor<uint64, []>(1995520)))];
            tensor<fp16, [64]> model_model_6_m_0_m_0_cv2_conv_bias_to_fp16 = const()[name = tensor<string, []>("model_model_6_m_0_m_0_cv2_conv_bias_to_fp16"), val = tensor<fp16, [64]>(BLOBFILE(path = tensor<string, []>("@model_path/weights/weight.bin"), offset = tensor<uint64, []>(2069312)))];
            tensor<fp16, [1, 64, 40, 40]> input_61_cast_fp16 = conv(bias = model_model_6_m_0_m_0_cv2_conv_bias_to_fp16, dilations = input_61_dilations_0, groups = input_61_groups_0, pad = input_61_pad_0, pad_type = input_61_pad_type_0, strides = input_61_strides_0, weight = model_model_6_m_0_m_0_cv2_conv_weight_to_fp16, x = input_59_cast_fp16)[name = tensor<string, []>("input_61_cast_fp16")];
            tensor<fp16, [1, 64, 40, 40]> var_246_cast_fp16 = silu(x = input_61_cast_fp16)[name = tensor<string, []>("op_246_cast_fp16")];
            tensor<fp16, [1, 64, 40, 40]> input_63_cast_fp16 = add(x = input_55_cast_fp16, y = var_246_cast_fp16)[name = tensor<string, []>("input_63_cast_fp16")];
            tensor<string, []> input_65_pad_type_0 = const()[name = tensor<string, []>("input_65_pad_type_0"), val = tensor<string, []>("custom")];
            tensor<int32, [4]> input_65_pad_0 = const()[name = tensor<string, []>("input_65_pad_0"), val = tensor<int32, [4]>([1, 1, 1, 1])];
            tensor<int32, [2]> input_65_strides_0 = const()[name = tensor<string, []>("input_65_strides_0"), val = tensor<int32, [2]>([1, 1])];
            tensor<int32, [2]> input_65_dilations_0 = const()[name = tensor<string, []>("input_65_dilations_0"), val = tensor<int32, [2]>([1, 1])];
            tensor<int32, []> input_65_groups_0 = const()[name = tensor<string, []>("input_65_groups_0"), val = tensor<int32, []>(1)];
            tensor<fp16, [64, 64, 3, 3]> model_model_6_m_0_m_1_cv1_conv_weight_to_fp16 = const()[name = tensor<string, []>("model_model_6_m_0_m_1_cv1_conv_weight_to_fp16"), val = tensor<fp16, [64, 64, 3, 3]>(BLOBFILE(path = tensor<string, []>("@model_path/weights/weight.bin"), offset = tensor<uint64, []>(2069504)))];
            tensor<fp16, [64]> model_model_6_m_0_m_1_cv1_conv_bias_to_fp16 = const()[name = tensor<string, []>("model_model_6_m_0_m_1_cv1_conv_bias_to_fp16"), val = tensor<fp16, [64]>(BLOBFILE(path = tensor<string, []>("@model_path/weights/weight.bin"), offset = tensor<uint64, []>(2143296)))];
            tensor<fp16, [1, 64, 40, 40]> input_65_cast_fp16 = conv(bias = model_model_6_m_0_m_1_cv1_conv_bias_to_fp16, dilations = input_65_dilations_0, groups = input_65_groups_0, pad = input_65_pad_0, pad_type = input_65_pad_type_0, strides = input_65_strides_0, weight = model_model_6_m_0_m_1_cv1_conv_weight_to_fp16, x = input_63_cast_fp16)[name = tensor<string, []>("input_65_cast_fp16")];
            tensor<fp16, [1, 64, 40, 40]> input_67_cast_fp16 = silu(x = input_65_cast_fp16)[name = tensor<string, []>("input_67_cast_fp16")];
            tensor<string, []> input_69_pad_type_0 = const()[name = tensor<string, []>("input_69_pad_type_0"), val = tensor<string, []>("custom")];
            tensor<int32, [4]> input_69_pad_0 = const()[name = tensor<string, []>("input_69_pad_0"), val = tensor<int32, [4]>([1, 1, 1, 1])];
            tensor<int32, [2]> input_69_strides_0 = const()[name = tensor<string, []>("input_69_strides_0"), val = tensor<int32, [2]>([1, 1])];
            tensor<int32, [2]> input_69_dilations_0 = const()[name = tensor<string, []>("input_69_dilations_0"), val = tensor<int32, [2]>([1, 1])];
            tensor<int32, []> input_69_groups_0 = const()[name = tensor<string, []>("input_69_groups_0"), val = tensor<int32, []>(1)];
            tensor<fp16, [64, 64, 3, 3]> model_model_6_m_0_m_1_cv2_conv_weight_to_fp16 = const()[name = tensor<string, []>("model_model_6_m_0_m_1_cv2_conv_weight_to_fp16"), val = tensor<fp16, [64, 64, 3, 3]>(BLOBFILE(path = tensor<string, []>("@model_path/weights/weight.bin"), offset = tensor<uint64, []>(2143488)))];
            tensor<fp16, [64]> model_model_6_m_0_m_1_cv2_conv_bias_to_fp16 = const()[name = tensor<string, []>("model_model_6_m_0_m_1_cv2_conv_bias_to_fp16"), val = tensor<fp16, [64]>(BLOBFILE(path = tensor<string, []>("@model_path/weights/weight.bin"), offset = tensor<uint64, []>(2217280)))];
            tensor<fp16, [1, 64, 40, 40]> input_69_cast_fp16 = conv(bias = model_model_6_m_0_m_1_cv2_conv_bias_to_fp16, dilations = input_69_dilations_0, groups = input_69_groups_0, pad = input_69_pad_0, pad_type = input_69_pad_type_0, strides = input_69_strides_0, weight = model_model_6_m_0_m_1_cv2_conv_weight_to_fp16, x = input_67_cast_fp16)[name = tensor<string, []>("input_69_cast_fp16")];
            tensor<fp16, [1, 64, 40, 40]> var_267_cast_fp16 = silu(x = input_69_cast_fp16)[name = tensor<string, []>("op_267_cast_fp16")];
            tensor<fp16, [1, 64, 40, 40]> var_268_cast_fp16 = add(x = input_63_cast_fp16, y = var_267_cast_fp16)[name = tensor<string, []>("op_268_cast_fp16")];
            tensor<string, []> input_71_pad_type_0 = const()[name = tensor<string, []>("input_71_pad_type_0"), val = tensor<string, []>("valid")];
            tensor<int32, [2]> input_71_strides_0 = const()[name = tensor<string, []>("input_71_strides_0"), val = tensor<int32, [2]>([1, 1])];
            tensor<int32, [4]> input_71_pad_0 = const()[name = tensor<string, []>("input_71_pad_0"), val = tensor<int32, [4]>([0, 0, 0, 0])];
            tensor<int32, [2]> input_71_dilations_0 = const()[name = tensor<string, []>("input_71_dilations_0"), val = tensor<int32, [2]>([1, 1])];
            tensor<int32, []> input_71_groups_0 = const()[name = tensor<string, []>("input_71_groups_0"), val = tensor<int32, []>(1)];
            tensor<fp16, [64, 128, 1, 1]> model_model_6_m_0_cv2_conv_weight_to_fp16 = const()[name = tensor<string, []>("model_model_6_m_0_cv2_conv_weight_to_fp16"), val = tensor<fp16, [64, 128, 1, 1]>(BLOBFILE(path = tensor<string, []>("@model_path/weights/weight.bin"), offset = tensor<uint64, []>(2217472)))];
            tensor<fp16, [64]> model_model_6_m_0_cv2_conv_bias_to_fp16 = const()[name = tensor<string, []>("model_model_6_m_0_cv2_conv_bias_to_fp16"), val = tensor<fp16, [64]>(BLOBFILE(path = tensor<string, []>("@model_path/weights/weight.bin"), offset = tensor<uint64, []>(2233920)))];
            tensor<fp16, [1, 64, 40, 40]> input_71_cast_fp16 = conv(bias = model_model_6_m_0_cv2_conv_bias_to_fp16, dilations = input_71_dilations_0, groups = input_71_groups_0, pad = input_71_pad_0, pad_type = input_71_pad_type_0, strides = input_71_strides_0, weight = model_model_6_m_0_cv2_conv_weight_to_fp16, x = var_209_cast_fp16_1)[name = tensor<string, []>("input_71_cast_fp16")];
            tensor<fp16, [1, 64, 40, 40]> var_277_cast_fp16 = silu(x = input_71_cast_fp16)[name = tensor<string, []>("op_277_cast_fp16")];
            tensor<bool, []> input_73_interleave_0 = const()[name = tensor<string, []>("input_73_interleave_0"), val = tensor<bool, []>(false)];
            tensor<fp16, [1, 128, 40, 40]> input_73_cast_fp16 = concat(axis = var_23, interleave = input_73_interleave_0, values = (var_268_cast_fp16, var_277_cast_fp16))[name = tensor<string, []>("input_73_cast_fp16")];
            tensor<string, []> input_75_pad_type_0 = const()[name = tensor<string, []>("input_75_pad_type_0"), val = tensor<string, []>("valid")];
            tensor<int32, [2]> input_75_strides_0 = const()[name = tensor<string, []>("input_75_strides_0"), val = tensor<int32, [2]>([1, 1])];
            tensor<int32, [4]> input_75_pad_0 = const()[name = tensor<string, []>("input_75_pad_0"), val = tensor<int32, [4]>([0, 0, 0, 0])];
            tensor<int32, [2]> input_75_dilations_0 = const()[name = tensor<string, []>("input_75_dilations_0"), val = tensor<int32, [2]>([1, 1])];
            tensor<int32, []> input_75_groups_0 = const()[name = tensor<string, []>("input_75_groups_0"), val = tensor<int32, []>(1)];
            tensor<fp16, [128, 128, 1, 1]> model_model_6_m_0_cv3_conv_weight_to_fp16 = const()[name = tensor<string, []>("model_model_6_m_0_cv3_conv_weight_to_fp16"), val = tensor<fp16, [128, 128, 1, 1]>(BLOBFILE(path = tensor<string, []>("@model_path/weights/weight.bin"), offset = tensor<uint64, []>(2234112)))];
            tensor<fp16, [128]> model_model_6_m_0_cv3_conv_bias_to_fp16 = const()[name = tensor<string, []>("model_model_6_m_0_cv3_conv_bias_to_fp16"), val = tensor<fp16, [128]>(BLOBFILE(path = tensor<string, []>("@model_path/weights/weight.bin"), offset = tensor<uint64, []>(2266944)))];
            tensor<fp16, [1, 128, 40, 40]> input_75_cast_fp16 = conv(bias = model_model_6_m_0_cv3_conv_bias_to_fp16, dilations = input_75_dilations_0, groups = input_75_groups_0, pad = input_75_pad_0, pad_type = input_75_pad_type_0, strides = input_75_strides_0, weight = model_model_6_m_0_cv3_conv_weight_to_fp16, x = input_73_cast_fp16)[name = tensor<string, []>("input_75_cast_fp16")];
            tensor<fp16, [1, 128, 40, 40]> var_288_cast_fp16 = silu(x = input_75_cast_fp16)[name = tensor<string, []>("op_288_cast_fp16")];
            tensor<bool, []> input_77_interleave_0 = const()[name = tensor<string, []>("input_77_interleave_0"), val = tensor<bool, []>(false)];
            tensor<fp16, [1, 384, 40, 40]> input_77_cast_fp16 = concat(axis = var_23, interleave = input_77_interleave_0, values = (var_209_cast_fp16_0, var_209_cast_fp16_1, var_288_cast_fp16))[name = tensor<string, []>("input_77_cast_fp16")];
            tensor<string, []> input_79_pad_type_0 = const()[name = tensor<string, []>("input_79_pad_type_0"), val = tensor<string, []>("valid")];
            tensor<int32, [2]> input_79_strides_0 = const()[name = tensor<string, []>("input_79_strides_0"), val = tensor<int32, [2]>([1, 1])];
            tensor<int32, [4]> input_79_pad_0 = const()[name = tensor<string, []>("input_79_pad_0"), val = tensor<int32, [4]>([0, 0, 0, 0])];
            tensor<int32, [2]> input_79_dilations_0 = const()[name = tensor<string, []>("input_79_dilations_0"), val = tensor<int32, [2]>([1, 1])];
            tensor<int32, []> input_79_groups_0 = const()[name = tensor<string, []>("input_79_groups_0"), val = tensor<int32, []>(1)];
            tensor<fp16, [256, 384, 1, 1]> model_model_6_cv2_conv_weight_to_fp16 = const()[name = tensor<string, []>("model_model_6_cv2_conv_weight_to_fp16"), val = tensor<fp16, [256, 384, 1, 1]>(BLOBFILE(path = tensor<string, []>("@model_path/weights/weight.bin"), offset = tensor<uint64, []>(2267264)))];
            tensor<fp16, [256]> model_model_6_cv2_conv_bias_to_fp16 = const()[name = tensor<string, []>("model_model_6_cv2_conv_bias_to_fp16"), val = tensor<fp16, [256]>(BLOBFILE(path = tensor<string, []>("@model_path/weights/weight.bin"), offset = tensor<uint64, []>(2463936)))];
            tensor<fp16, [1, 256, 40, 40]> input_79_cast_fp16 = conv(bias = model_model_6_cv2_conv_bias_to_fp16, dilations = input_79_dilations_0, groups = input_79_groups_0, pad = input_79_pad_0, pad_type = input_79_pad_type_0, strides = input_79_strides_0, weight = model_model_6_cv2_conv_weight_to_fp16, x = input_77_cast_fp16)[name = tensor<string, []>("input_79_cast_fp16")];
            tensor<fp16, [1, 256, 40, 40]> input_81_cast_fp16 = silu(x = input_79_cast_fp16)[name = tensor<string, []>("input_81_cast_fp16")];
            tensor<string, []> input_83_pad_type_0 = const()[name = tensor<string, []>("input_83_pad_type_0"), val = tensor<string, []>("custom")];
            tensor<int32, [4]> input_83_pad_0 = const()[name = tensor<string, []>("input_83_pad_0"), val = tensor<int32, [4]>([1, 1, 1, 1])];
            tensor<int32, [2]> input_83_strides_0 = const()[name = tensor<string, []>("input_83_strides_0"), val = tensor<int32, [2]>([2, 2])];
            tensor<int32, [2]> input_83_dilations_0 = const()[name = tensor<string, []>("input_83_dilations_0"), val = tensor<int32, [2]>([1, 1])];
            tensor<int32, []> input_83_groups_0 = const()[name = tensor<string, []>("input_83_groups_0"), val = tensor<int32, []>(1)];
            tensor<fp16, [512, 256, 3, 3]> model_model_7_conv_weight_to_fp16 = const()[name = tensor<string, []>("model_model_7_conv_weight_to_fp16"), val = tensor<fp16, [512, 256, 3, 3]>(BLOBFILE(path = tensor<string, []>("@model_path/weights/weight.bin"), offset = tensor<uint64, []>(2464512)))];
            tensor<fp16, [512]> model_model_7_conv_bias_to_fp16 = const()[name = tensor<string, []>("model_model_7_conv_bias_to_fp16"), val = tensor<fp16, [512]>(BLOBFILE(path = tensor<string, []>("@model_path/weights/weight.bin"), offset = tensor<uint64, []>(4823872)))];
            tensor<fp16, [1, 512, 20, 20]> input_83_cast_fp16 = conv(bias = model_model_7_conv_bias_to_fp16, dilations = input_83_dilations_0, groups = input_83_groups_0, pad = input_83_pad_0, pad_type = input_83_pad_type_0, strides = input_83_strides_0, weight = model_model_7_conv_weight_to_fp16, x = input_81_cast_fp16)[name = tensor<string, []>("input_83_cast_fp16")];
            tensor<fp16, [1, 512, 20, 20]> input_85_cast_fp16 = silu(x = input_83_cast_fp16)[name = tensor<string, []>("input_85_cast_fp16")];
            tensor<string, []> input_87_pad_type_0 = const()[name = tensor<string, []>("input_87_pad_type_0"), val = tensor<string, []>("valid")];
            tensor<int32, [2]> input_87_strides_0 = const()[name = tensor<string, []>("input_87_strides_0"), val = tensor<int32, [2]>([1, 1])];
            tensor<int32, [4]> input_87_pad_0 = const()[name = tensor<string, []>("input_87_pad_0"), val = tensor<int32, [4]>([0, 0, 0, 0])];
            tensor<int32, [2]> input_87_dilations_0 = const()[name = tensor<string, []>("input_87_dilations_0"), val = tensor<int32, [2]>([1, 1])];
            tensor<int32, []> input_87_groups_0 = const()[name = tensor<string, []>("input_87_groups_0"), val = tensor<int32, []>(1)];
            tensor<fp16, [512, 512, 1, 1]> model_model_8_cv1_conv_weight_to_fp16 = const()[name = tensor<string, []>("model_model_8_cv1_conv_weight_to_fp16"), val = tensor<fp16, [512, 512, 1, 1]>(BLOBFILE(path = tensor<string, []>("@model_path/weights/weight.bin"), offset = tensor<uint64, []>(4824960)))];
            tensor<fp16, [512]> model_model_8_cv1_conv_bias_to_fp16 = const()[name = tensor<string, []>("model_model_8_cv1_conv_bias_to_fp16"), val = tensor<fp16, [512]>(BLOBFILE(path = tensor<string, []>("@model_path/weights/weight.bin"), offset = tensor<uint64, []>(5349312)))];
            tensor<fp16, [1, 512, 20, 20]> input_87_cast_fp16 = conv(bias = model_model_8_cv1_conv_bias_to_fp16, dilations = input_87_dilations_0, groups = input_87_groups_0, pad = input_87_pad_0, pad_type = input_87_pad_type_0, strides = input_87_strides_0, weight = model_model_8_cv1_conv_weight_to_fp16, x = input_85_cast_fp16)[name = tensor<string, []>("input_87_cast_fp16")];
            tensor<fp16, [1, 512, 20, 20]> var_321_cast_fp16 = silu(x = input_87_cast_fp16)[name = tensor<string, []>("op_321_cast_fp16")];
            tensor<int32, [2]> var_322 = const()[name = tensor<string, []>("op_322"), val = tensor<int32, [2]>([256, 256])];
            tensor<int32, []> var_323_axis_0 = const()[name = tensor<string, []>("op_323_axis_0"), val = tensor<int32, []>(1)];
            tensor<fp16, [1, 256, 20, 20]> var_323_cast_fp16_0, tensor<fp16, [1, 256, 20, 20]> var_323_cast_fp16_1 = split(axis = var_323_axis_0, split_sizes = var_322, x = var_321_cast_fp16)[name = tensor<string, []>("op_323_cast_fp16")];
            tensor<string, []> input_91_pad_type_0 = const()[name = tensor<string, []>("input_91_pad_type_0"), val = tensor<string, []>("valid")];
            tensor<int32, [2]> input_91_strides_0 = const()[name = tensor<string, []>("input_91_strides_0"), val = tensor<int32, [2]>([1, 1])];
            tensor<int32, [4]> input_91_pad_0 = const()[name = tensor<string, []>("input_91_pad_0"), val = tensor<int32, [4]>([0, 0, 0, 0])];
            tensor<int32, [2]> input_91_dilations_0 = const()[name = tensor<string, []>("input_91_dilations_0"), val = tensor<int32, [2]>([1, 1])];
            tensor<int32, []> input_91_groups_0 = const()[name = tensor<string, []>("input_91_groups_0"), val = tensor<int32, []>(1)];
            tensor<fp16, [128, 256, 1, 1]> model_model_8_m_0_cv1_conv_weight_to_fp16 = const()[name = tensor<string, []>("model_model_8_m_0_cv1_conv_weight_to_fp16"), val = tensor<fp16, [128, 256, 1, 1]>(BLOBFILE(path = tensor<string, []>("@model_path/weights/weight.bin"), offset = tensor<uint64, []>(5350400)))];
            tensor<fp16, [128]> model_model_8_m_0_cv1_conv_bias_to_fp16 = const()[name = tensor<string, []>("model_model_8_m_0_cv1_conv_bias_to_fp16"), val = tensor<fp16, [128]>(BLOBFILE(path = tensor<string, []>("@model_path/weights/weight.bin"), offset = tensor<uint64, []>(5416000)))];
            tensor<fp16, [1, 128, 20, 20]> input_91_cast_fp16 = conv(bias = model_model_8_m_0_cv1_conv_bias_to_fp16, dilations = input_91_dilations_0, groups = input_91_groups_0, pad = input_91_pad_0, pad_type = input_91_pad_type_0, strides = input_91_strides_0, weight = model_model_8_m_0_cv1_conv_weight_to_fp16, x = var_323_cast_fp16_1)[name = tensor<string, []>("input_91_cast_fp16")];
            tensor<fp16, [1, 128, 20, 20]> input_93_cast_fp16 = silu(x = input_91_cast_fp16)[name = tensor<string, []>("input_93_cast_fp16")];
            tensor<string, []> input_95_pad_type_0 = const()[name = tensor<string, []>("input_95_pad_type_0"), val = tensor<string, []>("custom")];
            tensor<int32, [4]> input_95_pad_0 = const()[name = tensor<string, []>("input_95_pad_0"), val = tensor<int32, [4]>([1, 1, 1, 1])];
            tensor<int32, [2]> input_95_strides_0 = const()[name = tensor<string, []>("input_95_strides_0"), val = tensor<int32, [2]>([1, 1])];
            tensor<int32, [2]> input_95_dilations_0 = const()[name = tensor<string, []>("input_95_dilations_0"), val = tensor<int32, [2]>([1, 1])];
            tensor<int32, []> input_95_groups_0 = const()[name = tensor<string, []>("input_95_groups_0"), val = tensor<int32, []>(1)];
            tensor<fp16, [128, 128, 3, 3]> model_model_8_m_0_m_0_cv1_conv_weight_to_fp16 = const()[name = tensor<string, []>("model_model_8_m_0_m_0_cv1_conv_weight_to_fp16"), val = tensor<fp16, [128, 128, 3, 3]>(BLOBFILE(path = tensor<string, []>("@model_path/weights/weight.bin"), offset = tensor<uint64, []>(5416320)))];
            tensor<fp16, [128]> model_model_8_m_0_m_0_cv1_conv_bias_to_fp16 = const()[name = tensor<string, []>("model_model_8_m_0_m_0_cv1_conv_bias_to_fp16"), val = tensor<fp16, [128]>(BLOBFILE(path = tensor<string, []>("@model_path/weights/weight.bin"), offset = tensor<uint64, []>(5711296)))];
            tensor<fp16, [1, 128, 20, 20]> input_95_cast_fp16 = conv(bias = model_model_8_m_0_m_0_cv1_conv_bias_to_fp16, dilations = input_95_dilations_0, groups = input_95_groups_0, pad = input_95_pad_0, pad_type = input_95_pad_type_0, strides = input_95_strides_0, weight = model_model_8_m_0_m_0_cv1_conv_weight_to_fp16, x = input_93_cast_fp16)[name = tensor<string, []>("input_95_cast_fp16")];
            tensor<fp16, [1, 128, 20, 20]> input_97_cast_fp16 = silu(x = input_95_cast_fp16)[name = tensor<string, []>("input_97_cast_fp16")];
            tensor<string, []> input_99_pad_type_0 = const()[name = tensor<string, []>("input_99_pad_type_0"), val = tensor<string, []>("custom")];
            tensor<int32, [4]> input_99_pad_0 = const()[name = tensor<string, []>("input_99_pad_0"), val = tensor<int32, [4]>([1, 1, 1, 1])];
            tensor<int32, [2]> input_99_strides_0 = const()[name = tensor<string, []>("input_99_strides_0"), val = tensor<int32, [2]>([1, 1])];
            tensor<int32, [2]> input_99_dilations_0 = const()[name = tensor<string, []>("input_99_dilations_0"), val = tensor<int32, [2]>([1, 1])];
            tensor<int32, []> input_99_groups_0 = const()[name = tensor<string, []>("input_99_groups_0"), val = tensor<int32, []>(1)];
            tensor<fp16, [128, 128, 3, 3]> model_model_8_m_0_m_0_cv2_conv_weight_to_fp16 = const()[name = tensor<string, []>("model_model_8_m_0_m_0_cv2_conv_weight_to_fp16"), val = tensor<fp16, [128, 128, 3, 3]>(BLOBFILE(path = tensor<string, []>("@model_path/weights/weight.bin"), offset = tensor<uint64, []>(5711616)))];
            tensor<fp16, [128]> model_model_8_m_0_m_0_cv2_conv_bias_to_fp16 = const()[name = tensor<string, []>("model_model_8_m_0_m_0_cv2_conv_bias_to_fp16"), val = tensor<fp16, [128]>(BLOBFILE(path = tensor<string, []>("@model_path/weights/weight.bin"), offset = tensor<uint64, []>(6006592)))];
            tensor<fp16, [1, 128, 20, 20]> input_99_cast_fp16 = conv(bias = model_model_8_m_0_m_0_cv2_conv_bias_to_fp16, dilations = input_99_dilations_0, groups = input_99_groups_0, pad = input_99_pad_0, pad_type = input_99_pad_type_0, strides = input_99_strides_0, weight = model_model_8_m_0_m_0_cv2_conv_weight_to_fp16, x = input_97_cast_fp16)[name = tensor<string, []>("input_99_cast_fp16")];
            tensor<fp16, [1, 128, 20, 20]> var_360_cast_fp16 = silu(x = input_99_cast_fp16)[name = tensor<string, []>("op_360_cast_fp16")];
            tensor<fp16, [1, 128, 20, 20]> input_101_cast_fp16 = add(x = input_93_cast_fp16, y = var_360_cast_fp16)[name = tensor<string, []>("input_101_cast_fp16")];
            tensor<string, []> input_103_pad_type_0 = const()[name = tensor<string, []>("input_103_pad_type_0"), val = tensor<string, []>("custom")];
            tensor<int32, [4]> input_103_pad_0 = const()[name = tensor<string, []>("input_103_pad_0"), val = tensor<int32, [4]>([1, 1, 1, 1])];
            tensor<int32, [2]> input_103_strides_0 = const()[name = tensor<string, []>("input_103_strides_0"), val = tensor<int32, [2]>([1, 1])];
            tensor<int32, [2]> input_103_dilations_0 = const()[name = tensor<string, []>("input_103_dilations_0"), val = tensor<int32, [2]>([1, 1])];
            tensor<int32, []> input_103_groups_0 = const()[name = tensor<string, []>("input_103_groups_0"), val = tensor<int32, []>(1)];
            tensor<fp16, [128, 128, 3, 3]> model_model_8_m_0_m_1_cv1_conv_weight_to_fp16 = const()[name = tensor<string, []>("model_model_8_m_0_m_1_cv1_conv_weight_to_fp16"), val = tensor<fp16, [128, 128, 3, 3]>(BLOBFILE(path = tensor<string, []>("@model_path/weights/weight.bin"), offset = tensor<uint64, []>(6006912)))];
            tensor<fp16, [128]> model_model_8_m_0_m_1_cv1_conv_bias_to_fp16 = const()[name = tensor<string, []>("model_model_8_m_0_m_1_cv1_conv_bias_to_fp16"), val = tensor<fp16, [128]>(BLOBFILE(path = tensor<string, []>("@model_path/weights/weight.bin"), offset = tensor<uint64, []>(6301888)))];
            tensor<fp16, [1, 128, 20, 20]> input_103_cast_fp16 = conv(bias = model_model_8_m_0_m_1_cv1_conv_bias_to_fp16, dilations = input_103_dilations_0, groups = input_103_groups_0, pad = input_103_pad_0, pad_type = input_103_pad_type_0, strides = input_103_strides_0, weight = model_model_8_m_0_m_1_cv1_conv_weight_to_fp16, x = input_101_cast_fp16)[name = tensor<string, []>("input_103_cast_fp16")];
            tensor<fp16, [1, 128, 20, 20]> input_105_cast_fp16 = silu(x = input_103_cast_fp16)[name = tensor<string, []>("input_105_cast_fp16")];
            tensor<string, []> input_107_pad_type_0 = const()[name = tensor<string, []>("input_107_pad_type_0"), val = tensor<string, []>("custom")];
            tensor<int32, [4]> input_107_pad_0 = const()[name = tensor<string, []>("input_107_pad_0"), val = tensor<int32, [4]>([1, 1, 1, 1])];
            tensor<int32, [2]> input_107_strides_0 = const()[name = tensor<string, []>("input_107_strides_0"), val = tensor<int32, [2]>([1, 1])];
            tensor<int32, [2]> input_107_dilations_0 = const()[name = tensor<string, []>("input_107_dilations_0"), val = tensor<int32, [2]>([1, 1])];
            tensor<int32, []> input_107_groups_0 = const()[name = tensor<string, []>("input_107_groups_0"), val = tensor<int32, []>(1)];
            tensor<fp16, [128, 128, 3, 3]> model_model_8_m_0_m_1_cv2_conv_weight_to_fp16 = const()[name = tensor<string, []>("model_model_8_m_0_m_1_cv2_conv_weight_to_fp16"), val = tensor<fp16, [128, 128, 3, 3]>(BLOBFILE(path = tensor<string, []>("@model_path/weights/weight.bin"), offset = tensor<uint64, []>(6302208)))];
            tensor<fp16, [128]> model_model_8_m_0_m_1_cv2_conv_bias_to_fp16 = const()[name = tensor<string, []>("model_model_8_m_0_m_1_cv2_conv_bias_to_fp16"), val = tensor<fp16, [128]>(BLOBFILE(path = tensor<string, []>("@model_path/weights/weight.bin"), offset = tensor<uint64, []>(6597184)))];
            tensor<fp16, [1, 128, 20, 20]> input_107_cast_fp16 = conv(bias = model_model_8_m_0_m_1_cv2_conv_bias_to_fp16, dilations = input_107_dilations_0, groups = input_107_groups_0, pad = input_107_pad_0, pad_type = input_107_pad_type_0, strides = input_107_strides_0, weight = model_model_8_m_0_m_1_cv2_conv_weight_to_fp16, x = input_105_cast_fp16)[name = tensor<string, []>("input_107_cast_fp16")];
            tensor<fp16, [1, 128, 20, 20]> var_381_cast_fp16 = silu(x = input_107_cast_fp16)[name = tensor<string, []>("op_381_cast_fp16")];
            tensor<fp16, [1, 128, 20, 20]> var_382_cast_fp16 = add(x = input_101_cast_fp16, y = var_381_cast_fp16)[name = tensor<string, []>("op_382_cast_fp16")];
            tensor<string, []> input_109_pad_type_0 = const()[name = tensor<string, []>("input_109_pad_type_0"), val = tensor<string, []>("valid")];
            tensor<int32, [2]> input_109_strides_0 = const()[name = tensor<string, []>("input_109_strides_0"), val = tensor<int32, [2]>([1, 1])];
            tensor<int32, [4]> input_109_pad_0 = const()[name = tensor<string, []>("input_109_pad_0"), val = tensor<int32, [4]>([0, 0, 0, 0])];
            tensor<int32, [2]> input_109_dilations_0 = const()[name = tensor<string, []>("input_109_dilations_0"), val = tensor<int32, [2]>([1, 1])];
            tensor<int32, []> input_109_groups_0 = const()[name = tensor<string, []>("input_109_groups_0"), val = tensor<int32, []>(1)];
            tensor<fp16, [128, 256, 1, 1]> model_model_8_m_0_cv2_conv_weight_to_fp16 = const()[name = tensor<string, []>("model_model_8_m_0_cv2_conv_weight_to_fp16"), val = tensor<fp16, [128, 256, 1, 1]>(BLOBFILE(path = tensor<string, []>("@model_path/weights/weight.bin"), offset = tensor<uint64, []>(6597504)))];
            tensor<fp16, [128]> model_model_8_m_0_cv2_conv_bias_to_fp16 = const()[name = tensor<string, []>("model_model_8_m_0_cv2_conv_bias_to_fp16"), val = tensor<fp16, [128]>(BLOBFILE(path = tensor<string, []>("@model_path/weights/weight.bin"), offset = tensor<uint64, []>(6663104)))];
            tensor<fp16, [1, 128, 20, 20]> input_109_cast_fp16 = conv(bias = model_model_8_m_0_cv2_conv_bias_to_fp16, dilations = input_109_dilations_0, groups = input_109_groups_0, pad = input_109_pad_0, pad_type = input_109_pad_type_0, strides = input_109_strides_0, weight = model_model_8_m_0_cv2_conv_weight_to_fp16, x = var_323_cast_fp16_1)[name = tensor<string, []>("input_109_cast_fp16")];
            tensor<fp16, [1, 128, 20, 20]> var_391_cast_fp16 = silu(x = input_109_cast_fp16)[name = tensor<string, []>("op_391_cast_fp16")];
            tensor<bool, []> input_111_interleave_0 = const()[name = tensor<string, []>("input_111_interleave_0"), val = tensor<bool, []>(false)];
            tensor<fp16, [1, 256, 20, 20]> input_111_cast_fp16 = concat(axis = var_23, interleave = input_111_interleave_0, values = (var_382_cast_fp16, var_391_cast_fp16))[name = tensor<string, []>("input_111_cast_fp16")];
            tensor<string, []> input_113_pad_type_0 = const()[name = tensor<string, []>("input_113_pad_type_0"), val = tensor<string, []>("valid")];
            tensor<int32, [2]> input_113_strides_0 = const()[name = tensor<string, []>("input_113_strides_0"), val = tensor<int32, [2]>([1, 1])];
            tensor<int32, [4]> input_113_pad_0 = const()[name = tensor<string, []>("input_113_pad_0"), val = tensor<int32, [4]>([0, 0, 0, 0])];
            tensor<int32, [2]> input_113_dilations_0 = const()[name = tensor<string, []>("input_113_dilations_0"), val = tensor<int32, [2]>([1, 1])];
            tensor<int32, []> input_113_groups_0 = const()[name = tensor<string, []>("input_113_groups_0"), val = tensor<int32, []>(1)];
            tensor<fp16, [256, 256, 1, 1]> model_model_8_m_0_cv3_conv_weight_to_fp16 = const()[name = tensor<string, []>("model_model_8_m_0_cv3_conv_weight_to_fp16"), val = tensor<fp16, [256, 256, 1, 1]>(BLOBFILE(path = tensor<string, []>("@model_path/weights/weight.bin"), offset = tensor<uint64, []>(6663424)))];
            tensor<fp16, [256]> model_model_8_m_0_cv3_conv_bias_to_fp16 = const()[name = tensor<string, []>("model_model_8_m_0_cv3_conv_bias_to_fp16"), val = tensor<fp16, [256]>(BLOBFILE(path = tensor<string, []>("@model_path/weights/weight.bin"), offset = tensor<uint64, []>(6794560)))];
            tensor<fp16, [1, 256, 20, 20]> input_113_cast_fp16 = conv(bias = model_model_8_m_0_cv3_conv_bias_to_fp16, dilations = input_113_dilations_0, groups = input_113_groups_0, pad = input_113_pad_0, pad_type = input_113_pad_type_0, strides = input_113_strides_0, weight = model_model_8_m_0_cv3_conv_weight_to_fp16, x = input_111_cast_fp16)[name = tensor<string, []>("input_113_cast_fp16")];
            tensor<fp16, [1, 256, 20, 20]> var_402_cast_fp16 = silu(x = input_113_cast_fp16)[name = tensor<string, []>("op_402_cast_fp16")];
            tensor<bool, []> input_115_interleave_0 = const()[name = tensor<string, []>("input_115_interleave_0"), val = tensor<bool, []>(false)];
            tensor<fp16, [1, 768, 20, 20]> input_115_cast_fp16 = concat(axis = var_23, interleave = input_115_interleave_0, values = (var_323_cast_fp16_0, var_323_cast_fp16_1, var_402_cast_fp16))[name = tensor<string, []>("input_115_cast_fp16")];
            tensor<string, []> input_117_pad_type_0 = const()[name = tensor<string, []>("input_117_pad_type_0"), val = tensor<string, []>("valid")];
            tensor<int32, [2]> input_117_strides_0 = const()[name = tensor<string, []>("input_117_strides_0"), val = tensor<int32, [2]>([1, 1])];
            tensor<int32, [4]> input_117_pad_0 = const()[name = tensor<string, []>("input_117_pad_0"), val = tensor<int32, [4]>([0, 0, 0, 0])];
            tensor<int32, [2]> input_117_dilations_0 = const()[name = tensor<string, []>("input_117_dilations_0"), val = tensor<int32, [2]>([1, 1])];
            tensor<int32, []> input_117_groups_0 = const()[name = tensor<string, []>("input_117_groups_0"), val = tensor<int32, []>(1)];
            tensor<fp16, [512, 768, 1, 1]> model_model_8_cv2_conv_weight_to_fp16 = const()[name = tensor<string, []>("model_model_8_cv2_conv_weight_to_fp16"), val = tensor<fp16, [512, 768, 1, 1]>(BLOBFILE(path = tensor<string, []>("@model_path/weights/weight.bin"), offset = tensor<uint64, []>(6795136)))];
            tensor<fp16, [512]> model_model_8_cv2_conv_bias_to_fp16 = const()[name = tensor<string, []>("model_model_8_cv2_conv_bias_to_fp16"), val = tensor<fp16, [512]>(BLOBFILE(path = tensor<string, []>("@model_path/weights/weight.bin"), offset = tensor<uint64, []>(7581632)))];
            tensor<fp16, [1, 512, 20, 20]> input_117_cast_fp16 = conv(bias = model_model_8_cv2_conv_bias_to_fp16, dilations = input_117_dilations_0, groups = input_117_groups_0, pad = input_117_pad_0, pad_type = input_117_pad_type_0, strides = input_117_strides_0, weight = model_model_8_cv2_conv_weight_to_fp16, x = input_115_cast_fp16)[name = tensor<string, []>("input_117_cast_fp16")];
            tensor<fp16, [1, 512, 20, 20]> input_119_cast_fp16 = silu(x = input_117_cast_fp16)[name = tensor<string, []>("input_119_cast_fp16")];
            tensor<string, []> input_121_pad_type_0 = const()[name = tensor<string, []>("input_121_pad_type_0"), val = tensor<string, []>("valid")];
            tensor<int32, [2]> input_121_strides_0 = const()[name = tensor<string, []>("input_121_strides_0"), val = tensor<int32, [2]>([1, 1])];
            tensor<int32, [4]> input_121_pad_0 = const()[name = tensor<string, []>("input_121_pad_0"), val = tensor<int32, [4]>([0, 0, 0, 0])];
            tensor<int32, [2]> input_121_dilations_0 = const()[name = tensor<string, []>("input_121_dilations_0"), val = tensor<int32, [2]>([1, 1])];
            tensor<int32, []> input_121_groups_0 = const()[name = tensor<string, []>("input_121_groups_0"), val = tensor<int32, []>(1)];
            tensor<fp16, [256, 512, 1, 1]> model_model_9_cv1_conv_weight_to_fp16 = const()[name = tensor<string, []>("model_model_9_cv1_conv_weight_to_fp16"), val = tensor<fp16, [256, 512, 1, 1]>(BLOBFILE(path = tensor<string, []>("@model_path/weights/weight.bin"), offset = tensor<uint64, []>(7582720)))];
            tensor<fp16, [256]> model_model_9_cv1_conv_bias_to_fp16 = const()[name = tensor<string, []>("model_model_9_cv1_conv_bias_to_fp16"), val = tensor<fp16, [256]>(BLOBFILE(path = tensor<string, []>("@model_path/weights/weight.bin"), offset = tensor<uint64, []>(7844928)))];
            tensor<fp16, [1, 256, 20, 20]> input_121_cast_fp16 = conv(bias = model_model_9_cv1_conv_bias_to_fp16, dilations = input_121_dilations_0, groups = input_121_groups_0, pad = input_121_pad_0, pad_type = input_121_pad_type_0, strides = input_121_strides_0, weight = model_model_9_cv1_conv_weight_to_fp16, x = input_119_cast_fp16)[name = tensor<string, []>("input_121_cast_fp16")];
            tensor<fp16, [1, 256, 20, 20]> input_123_cast_fp16 = silu(x = input_121_cast_fp16)[name = tensor<string, []>("input_123_cast_fp16")];
            tensor<int32, [2]> var_425 = const()[name = tensor<string, []>("op_425"), val = tensor<int32, [2]>([5, 5])];
            tensor<int32, [2]> var_426 = const()[name = tensor<string, []>("op_426"), val = tensor<int32, [2]>([1, 1])];
            tensor<string, []> input_125_pad_type_0 = const()[name = tensor<string, []>("input_125_pad_type_0"), val = tensor<string, []>("custom")];
            tensor<int32, [4]> input_125_pad_0 = const()[name = tensor<string, []>("input_125_pad_0"), val = tensor<int32, [4]>([2, 2, 2, 2])];
            tensor<bool, []> input_125_ceil_mode_0 = const()[name = tensor<string, []>("input_125_ceil_mode_0"), val = tensor<bool, []>(false)];
            tensor<fp16, [1, 256, 20, 20]> input_125_cast_fp16 = max_pool(ceil_mode = input_125_ceil_mode_0, kernel_sizes = var_425, pad = input_125_pad_0, pad_type = input_125_pad_type_0, strides = var_426, x = input_123_cast_fp16)[name = tensor<string, []>("input_125_cast_fp16")];
            tensor<int32, [2]> var_430 = const()[name = tensor<string, []>("op_430"), val = tensor<int32, [2]>([5, 5])];
            tensor<int32, [2]> var_431 = const()[name = tensor<string, []>("op_431"), val = tensor<int32, [2]>([1, 1])];
            tensor<string, []> input_127_pad_type_0 = const()[name = tensor<string, []>("input_127_pad_type_0"), val = tensor<string, []>("custom")];
            tensor<int32, [4]> input_127_pad_0 = const()[name = tensor<string, []>("input_127_pad_0"), val = tensor<int32, [4]>([2, 2, 2, 2])];
            tensor<bool, []> input_127_ceil_mode_0 = const()[name = tensor<string, []>("input_127_ceil_mode_0"), val = tensor<bool, []>(false)];
            tensor<fp16, [1, 256, 20, 20]> input_127_cast_fp16 = max_pool(ceil_mode = input_127_ceil_mode_0, kernel_sizes = var_430, pad = input_127_pad_0, pad_type = input_127_pad_type_0, strides = var_431, x = input_125_cast_fp16)[name = tensor<string, []>("input_127_cast_fp16")];
            tensor<int32, [2]> var_435 = const()[name = tensor<string, []>("op_435"), val = tensor<int32, [2]>([5, 5])];
            tensor<int32, [2]> var_436 = const()[name = tensor<string, []>("op_436"), val = tensor<int32, [2]>([1, 1])];
            tensor<string, []> var_439_pad_type_0 = const()[name = tensor<string, []>("op_439_pad_type_0"), val = tensor<string, []>("custom")];
            tensor<int32, [4]> var_439_pad_0 = const()[name = tensor<string, []>("op_439_pad_0"), val = tensor<int32, [4]>([2, 2, 2, 2])];
            tensor<bool, []> var_439_ceil_mode_0 = const()[name = tensor<string, []>("op_439_ceil_mode_0"), val = tensor<bool, []>(false)];
            tensor<fp16, [1, 256, 20, 20]> var_439_cast_fp16 = max_pool(ceil_mode = var_439_ceil_mode_0, kernel_sizes = var_435, pad = var_439_pad_0, pad_type = var_439_pad_type_0, strides = var_436, x = input_127_cast_fp16)[name = tensor<string, []>("op_439_cast_fp16")];
            tensor<bool, []> input_129_interleave_0 = const()[name = tensor<string, []>("input_129_interleave_0"), val = tensor<bool, []>(false)];
            tensor<fp16, [1, 1024, 20, 20]> input_129_cast_fp16 = concat(axis = var_23, interleave = input_129_interleave_0, values = (input_123_cast_fp16, input_125_cast_fp16, input_127_cast_fp16, var_439_cast_fp16))[name = tensor<string, []>("input_129_cast_fp16")];
            tensor<string, []> input_131_pad_type_0 = const()[name = tensor<string, []>("input_131_pad_type_0"), val = tensor<string, []>("valid")];
            tensor<int32, [2]> input_131_strides_0 = const()[name = tensor<string, []>("input_131_strides_0"), val = tensor<int32, [2]>([1, 1])];
            tensor<int32, [4]> input_131_pad_0 = const()[name = tensor<string, []>("input_131_pad_0"), val = tensor<int32, [4]>([0, 0, 0, 0])];
            tensor<int32, [2]> input_131_dilations_0 = const()[name = tensor<string, []>("input_131_dilations_0"), val = tensor<int32, [2]>([1, 1])];
            tensor<int32, []> input_131_groups_0 = const()[name = tensor<string, []>("input_131_groups_0"), val = tensor<int32, []>(1)];
            tensor<fp16, [512, 1024, 1, 1]> model_model_9_cv2_conv_weight_to_fp16 = const()[name = tensor<string, []>("model_model_9_cv2_conv_weight_to_fp16"), val = tensor<fp16, [512, 1024, 1, 1]>(BLOBFILE(path = tensor<string, []>("@model_path/weights/weight.bin"), offset = tensor<uint64, []>(7845504)))];
            tensor<fp16, [512]> model_model_9_cv2_conv_bias_to_fp16 = const()[name = tensor<string, []>("model_model_9_cv2_conv_bias_to_fp16"), val = tensor<fp16, [512]>(BLOBFILE(path = tensor<string, []>("@model_path/weights/weight.bin"), offset = tensor<uint64, []>(8894144)))];
            tensor<fp16, [1, 512, 20, 20]> input_131_cast_fp16 = conv(bias = model_model_9_cv2_conv_bias_to_fp16, dilations = input_131_dilations_0, groups = input_131_groups_0, pad = input_131_pad_0, pad_type = input_131_pad_type_0, strides = input_131_strides_0, weight = model_model_9_cv2_conv_weight_to_fp16, x = input_129_cast_fp16)[name = tensor<string, []>("input_131_cast_fp16")];
            tensor<fp16, [1, 512, 20, 20]> input_133_cast_fp16 = silu(x = input_131_cast_fp16)[name = tensor<string, []>("input_133_cast_fp16")];
            tensor<string, []> input_135_pad_type_0 = const()[name = tensor<string, []>("input_135_pad_type_0"), val = tensor<string, []>("valid")];
            tensor<int32, [2]> input_135_strides_0 = const()[name = tensor<string, []>("input_135_strides_0"), val = tensor<int32, [2]>([1, 1])];
            tensor<int32, [4]> input_135_pad_0 = const()[name = tensor<string, []>("input_135_pad_0"), val = tensor<int32, [4]>([0, 0, 0, 0])];
            tensor<int32, [2]> input_135_dilations_0 = const()[name = tensor<string, []>("input_135_dilations_0"), val = tensor<int32, [2]>([1, 1])];
            tensor<int32, []> input_135_groups_0 = const()[name = tensor<string, []>("input_135_groups_0"), val = tensor<int32, []>(1)];
            tensor<fp16, [512, 512, 1, 1]> model_model_10_cv1_conv_weight_to_fp16 = const()[name = tensor<string, []>("model_model_10_cv1_conv_weight_to_fp16"), val = tensor<fp16, [512, 512, 1, 1]>(BLOBFILE(path = tensor<string, []>("@model_path/weights/weight.bin"), offset = tensor<uint64, []>(8895232)))];
            tensor<fp16, [512]> model_model_10_cv1_conv_bias_to_fp16 = const()[name = tensor<string, []>("model_model_10_cv1_conv_bias_to_fp16"), val = tensor<fp16, [512]>(BLOBFILE(path = tensor<string, []>("@model_path/weights/weight.bin"), offset = tensor<uint64, []>(9419584)))];
            tensor<fp16, [1, 512, 20, 20]> input_135_cast_fp16 = conv(bias = model_model_10_cv1_conv_bias_to_fp16, dilations = input_135_dilations_0, groups = input_135_groups_0, pad = input_135_pad_0, pad_type = input_135_pad_type_0, strides = input_135_strides_0, weight = model_model_10_cv1_conv_weight_to_fp16, x = input_133_cast_fp16)[name = tensor<string, []>("input_135_cast_fp16")];
            tensor<fp16, [1, 512, 20, 20]> var_462_cast_fp16 = silu(x = input_135_cast_fp16)[name = tensor<string, []>("op_462_cast_fp16")];
            tensor<int32, [2]> var_463 = const()[name = tensor<string, []>("op_463"), val = tensor<int32, [2]>([256, 256])];
            tensor<int32, []> var_464_axis_0 = const()[name = tensor<string, []>("op_464_axis_0"), val = tensor<int32, []>(1)];
            tensor<fp16, [1, 256, 20, 20]> var_464_cast_fp16_0, tensor<fp16, [1, 256, 20, 20]> var_464_cast_fp16_1 = split(axis = var_464_axis_0, split_sizes = var_463, x = var_462_cast_fp16)[name = tensor<string, []>("op_464_cast_fp16")];
            tensor<string, []> qkv_1_pad_type_0 = const()[name = tensor<string, []>("qkv_1_pad_type_0"), val = tensor<string, []>("valid")];
            tensor<int32, [2]> qkv_1_strides_0 = const()[name = tensor<string, []>("qkv_1_strides_0"), val = tensor<int32, [2]>([1, 1])];
            tensor<int32, [4]> qkv_1_pad_0 = const()[name = tensor<string, []>("qkv_1_pad_0"), val = tensor<int32, [4]>([0, 0, 0, 0])];
            tensor<int32, [2]> qkv_1_dilations_0 = const()[name = tensor<string, []>("qkv_1_dilations_0"), val = tensor<int32, [2]>([1, 1])];
            tensor<int32, []> qkv_1_groups_0 = const()[name = tensor<string, []>("qkv_1_groups_0"), val = tensor<int32, []>(1)];
            tensor<fp16, [512, 256, 1, 1]> model_model_10_m_0_attn_qkv_conv_weight_to_fp16 = const()[name = tensor<string, []>("model_model_10_m_0_attn_qkv_conv_weight_to_fp16"), val = tensor<fp16, [512, 256, 1, 1]>(BLOBFILE(path = tensor<string, []>("@model_path/weights/weight.bin"), offset = tensor<uint64, []>(9420672)))];
            tensor<fp16, [512]> model_model_10_m_0_attn_qkv_conv_bias_to_fp16 = const()[name = tensor<string, []>("model_model_10_m_0_attn_qkv_conv_bias_to_fp16"), val = tensor<fp16, [512]>(BLOBFILE(path = tensor<string, []>("@model_path/weights/weight.bin"), offset = tensor<uint64, []>(9682880)))];
            tensor<fp16, [1, 512, 20, 20]> qkv_1_cast_fp16 = conv(bias = model_model_10_m_0_attn_qkv_conv_bias_to_fp16, dilations = qkv_1_dilations_0, groups = qkv_1_groups_0, pad = qkv_1_pad_0, pad_type = qkv_1_pad_type_0, strides = qkv_1_strides_0, weight = model_model_10_m_0_attn_qkv_conv_weight_to_fp16, x = var_464_cast_fp16_1)[name = tensor<string, []>("qkv_1_cast_fp16")];
            tensor<int32, [4]> var_489 = const()[name = tensor<string, []>("op_489"), val = tensor<int32, [4]>([1, 4, 128, 400])];
            tensor<fp16, [1, 4, 128, 400]> var_490_cast_fp16 = reshape(shape = var_489, x = qkv_1_cast_fp16)[name = tensor<string, []>("op_490_cast_fp16")];
            tensor<int32, [3]> var_491 = const()[name = tensor<string, []>("op_491"), val = tensor<int32, [3]>([32, 32, 64])];
            tensor<int32, []> var_492_axis_0 = const()[name = tensor<string, []>("op_492_axis_0"), val = tensor<int32, []>(2)];
            tensor<fp16, [1, 4, 32, 400]> var_492_cast_fp16_0, tensor<fp16, [1, 4, 32, 400]> var_492_cast_fp16_1, tensor<fp16, [1, 4, 64, 400]> var_492_cast_fp16_2 = split(axis = var_492_axis_0, split_sizes = var_491, x = var_490_cast_fp16)[name = tensor<string, []>("op_492_cast_fp16")];
            tensor<bool, []> var_497_transpose_x_1 = const()[name = tensor<string, []>("op_497_transpose_x_1"), val = tensor<bool, []>(true)];
            tensor<bool, []> var_497_transpose_y_1 = const()[name = tensor<string, []>("op_497_transpose_y_1"), val = tensor<bool, []>(false)];
            tensor<fp16, [1, 4, 400, 400]> var_497_cast_fp16 = matmul(transpose_x = var_497_transpose_x_1, transpose_y = var_497_transpose_y_1, x = var_492_cast_fp16_0, y = var_492_cast_fp16_1)[name = tensor<string, []>("op_497_cast_fp16")];
            tensor<fp16, []> var_498_to_fp16 = const()[name = tensor<string, []>("op_498_to_fp16"), val = tensor<fp16, []>(0x1.6ap-3)];
            tensor<fp16, [1, 4, 400, 400]> attn_1_cast_fp16 = mul(x = var_497_cast_fp16, y = var_498_to_fp16)[name = tensor<string, []>("attn_1_cast_fp16")];
            tensor<fp16, [1, 4, 400, 400]> attn_3_cast_fp16 = softmax(axis = var_11, x = attn_1_cast_fp16)[name = tensor<string, []>("attn_3_cast_fp16")];
            tensor<bool, []> var_502_transpose_x_1 = const()[name = tensor<string, []>("op_502_transpose_x_1"), val = tensor<bool, []>(false)];
            tensor<bool, []> var_502_transpose_y_1 = const()[name = tensor<string, []>("op_502_transpose_y_1"), val = tensor<bool, []>(true)];
            tensor<fp16, [1, 4, 64, 400]> var_502_cast_fp16 = matmul(transpose_x = var_502_transpose_x_1, transpose_y = var_502_transpose_y_1, x = var_492_cast_fp16_2, y = attn_3_cast_fp16)[name = tensor<string, []>("op_502_cast_fp16")];
            tensor<int32, [4]> var_503 = const()[name = tensor<string, []>("op_503"), val = tensor<int32, [4]>([1, 256, 20, 20])];
            tensor<fp16, [1, 256, 20, 20]> var_504_cast_fp16 = reshape(shape = var_503, x = var_502_cast_fp16)[name = tensor<string, []>("op_504_cast_fp16")];
            tensor<int32, [4]> var_505 = const()[name = tensor<string, []>("op_505"), val = tensor<int32, [4]>([1, 256, 20, 20])];
            tensor<fp16, [1, 256, 20, 20]> input_137_cast_fp16 = reshape(shape = var_505, x = var_492_cast_fp16_2)[name = tensor<string, []>("input_137_cast_fp16")];
            tensor<string, []> var_514_pad_type_0 = const()[name = tensor<string, []>("op_514_pad_type_0"), val = tensor<string, []>("custom")];
            tensor<int32, [4]> var_514_pad_0 = const()[name = tensor<string, []>("op_514_pad_0"), val = tensor<int32, [4]>([1, 1, 1, 1])];
            tensor<int32, []> var_514_groups_0 = const()[name = tensor<string, []>("op_514_groups_0"), val = tensor<int32, []>(256)];
            tensor<int32, [2]> var_514_strides_0 = const()[name = tensor<string, []>("op_514_strides_0"), val = tensor<int32, [2]>([1, 1])];
            tensor<int32, [2]> var_514_dilations_0 = const()[name = tensor<string, []>("op_514_dilations_0"), val = tensor<int32, [2]>([1, 1])];
            tensor<fp16, [256, 1, 3, 3]> model_model_10_m_0_attn_pe_conv_weight_to_fp16 = const()[name = tensor<string, []>("model_model_10_m_0_attn_pe_conv_weight_to_fp16"), val = tensor<fp16, [256, 1, 3, 3]>(BLOBFILE(path = tensor<string, []>("@model_path/weights/weight.bin"), offset = tensor<uint64, []>(9683968)))];
            tensor<fp16, [256]> model_model_10_m_0_attn_pe_conv_bias_to_fp16 = const()[name = tensor<string, []>("model_model_10_m_0_attn_pe_conv_bias_to_fp16"), val = tensor<fp16, [256]>(BLOBFILE(path = tensor<string, []>("@model_path/weights/weight.bin"), offset = tensor<uint64, []>(9688640)))];
            tensor<fp16, [1, 256, 20, 20]> var_514_cast_fp16 = conv(bias = model_model_10_m_0_attn_pe_conv_bias_to_fp16, dilations = var_514_dilations_0, groups = var_514_groups_0, pad = var_514_pad_0, pad_type = var_514_pad_type_0, strides = var_514_strides_0, weight = model_model_10_m_0_attn_pe_conv_weight_to_fp16, x = input_137_cast_fp16)[name = tensor<string, []>("op_514_cast_fp16")];
            tensor<fp16, [1, 256, 20, 20]> input_139_cast_fp16 = add(x = var_504_cast_fp16, y = var_514_cast_fp16)[name = tensor<string, []>("input_139_cast_fp16")];
            tensor<string, []> var_523_pad_type_0 = const()[name = tensor<string, []>("op_523_pad_type_0"), val = tensor<string, []>("valid")];
            tensor<int32, [2]> var_523_strides_0 = const()[name = tensor<string, []>("op_523_strides_0"), val = tensor<int32, [2]>([1, 1])];
            tensor<int32, [4]> var_523_pad_0 = const()[name = tensor<string, []>("op_523_pad_0"), val = tensor<int32, [4]>([0, 0, 0, 0])];
            tensor<int32, [2]> var_523_dilations_0 = const()[name = tensor<string, []>("op_523_dilations_0"), val = tensor<int32, [2]>([1, 1])];
            tensor<int32, []> var_523_groups_0 = const()[name = tensor<string, []>("op_523_groups_0"), val = tensor<int32, []>(1)];
            tensor<fp16, [256, 256, 1, 1]> model_model_10_m_0_attn_proj_conv_weight_to_fp16 = const()[name = tensor<string, []>("model_model_10_m_0_attn_proj_conv_weight_to_fp16"), val = tensor<fp16, [256, 256, 1, 1]>(BLOBFILE(path = tensor<string, []>("@model_path/weights/weight.bin"), offset = tensor<uint64, []>(9689216)))];
            tensor<fp16, [256]> model_model_10_m_0_attn_proj_conv_bias_to_fp16 = const()[name = tensor<string, []>("model_model_10_m_0_attn_proj_conv_bias_to_fp16"), val = tensor<fp16, [256]>(BLOBFILE(path = tensor<string, []>("@model_path/weights/weight.bin"), offset = tensor<uint64, []>(9820352)))];
            tensor<fp16, [1, 256, 20, 20]> var_523_cast_fp16 = conv(bias = model_model_10_m_0_attn_proj_conv_bias_to_fp16, dilations = var_523_dilations_0, groups = var_523_groups_0, pad = var_523_pad_0, pad_type = var_523_pad_type_0, strides = var_523_strides_0, weight = model_model_10_m_0_attn_proj_conv_weight_to_fp16, x = input_139_cast_fp16)[name = tensor<string, []>("op_523_cast_fp16")];
            tensor<fp16, [1, 256, 20, 20]> input_141_cast_fp16 = add(x = var_464_cast_fp16_1, y = var_523_cast_fp16)[name = tensor<string, []>("input_141_cast_fp16")];
            tensor<string, []> input_143_pad_type_0 = const()[name = tensor<string, []>("input_143_pad_type_0"), val = tensor<string, []>("valid")];
            tensor<int32, [2]> input_143_strides_0 = const()[name = tensor<string, []>("input_143_strides_0"), val = tensor<int32, [2]>([1, 1])];
            tensor<int32, [4]> input_143_pad_0 = const()[name = tensor<string, []>("input_143_pad_0"), val = tensor<int32, [4]>([0, 0, 0, 0])];
            tensor<int32, [2]> input_143_dilations_0 = const()[name = tensor<string, []>("input_143_dilations_0"), val = tensor<int32, [2]>([1, 1])];
            tensor<int32, []> input_143_groups_0 = const()[name = tensor<string, []>("input_143_groups_0"), val = tensor<int32, []>(1)];
            tensor<fp16, [512, 256, 1, 1]> model_model_10_m_0_ffn_0_conv_weight_to_fp16 = const()[name = tensor<string, []>("model_model_10_m_0_ffn_0_conv_weight_to_fp16"), val = tensor<fp16, [512, 256, 1, 1]>(BLOBFILE(path = tensor<string, []>("@model_path/weights/weight.bin"), offset = tensor<uint64, []>(9820928)))];
            tensor<fp16, [512]> model_model_10_m_0_ffn_0_conv_bias_to_fp16 = const()[name = tensor<string, []>("model_model_10_m_0_ffn_0_conv_bias_to_fp16"), val = tensor<fp16, [512]>(BLOBFILE(path = tensor<string, []>("@model_path/weights/weight.bin"), offset = tensor<uint64, []>(10083136)))];
            tensor<fp16, [1, 512, 20, 20]> input_143_cast_fp16 = conv(bias = model_model_10_m_0_ffn_0_conv_bias_to_fp16, dilations = input_143_dilations_0, groups = input_143_groups_0, pad = input_143_pad_0, pad_type = input_143_pad_type_0, strides = input_143_strides_0, weight = model_model_10_m_0_ffn_0_conv_weight_to_fp16, x = input_141_cast_fp16)[name = tensor<string, []>("input_143_cast_fp16")];
            tensor<fp16, [1, 512, 20, 20]> input_145_cast_fp16 = silu(x = input_143_cast_fp16)[name = tensor<string, []>("input_145_cast_fp16")];
            tensor<string, []> var_543_pad_type_0 = const()[name = tensor<string, []>("op_543_pad_type_0"), val = tensor<string, []>("valid")];
            tensor<int32, [2]> var_543_strides_0 = const()[name = tensor<string, []>("op_543_strides_0"), val = tensor<int32, [2]>([1, 1])];
            tensor<int32, [4]> var_543_pad_0 = const()[name = tensor<string, []>("op_543_pad_0"), val = tensor<int32, [4]>([0, 0, 0, 0])];
            tensor<int32, [2]> var_543_dilations_0 = const()[name = tensor<string, []>("op_543_dilations_0"), val = tensor<int32, [2]>([1, 1])];
            tensor<int32, []> var_543_groups_0 = const()[name = tensor<string, []>("op_543_groups_0"), val = tensor<int32, []>(1)];
            tensor<fp16, [256, 512, 1, 1]> model_model_10_m_0_ffn_1_conv_weight_to_fp16 = const()[name = tensor<string, []>("model_model_10_m_0_ffn_1_conv_weight_to_fp16"), val = tensor<fp16, [256, 512, 1, 1]>(BLOBFILE(path = tensor<string, []>("@model_path/weights/weight.bin"), offset = tensor<uint64, []>(10084224)))];
            tensor<fp16, [256]> model_model_10_m_0_ffn_1_conv_bias_to_fp16 = const()[name = tensor<string, []>("model_model_10_m_0_ffn_1_conv_bias_to_fp16"), val = tensor<fp16, [256]>(BLOBFILE(path = tensor<string, []>("@model_path/weights/weight.bin"), offset = tensor<uint64, []>(10346432)))];
            tensor<fp16, [1, 256, 20, 20]> var_543_cast_fp16 = conv(bias = model_model_10_m_0_ffn_1_conv_bias_to_fp16, dilations = var_543_dilations_0, groups = var_543_groups_0, pad = var_543_pad_0, pad_type = var_543_pad_type_0, strides = var_543_strides_0, weight = model_model_10_m_0_ffn_1_conv_weight_to_fp16, x = input_145_cast_fp16)[name = tensor<string, []>("op_543_cast_fp16")];
            tensor<fp16, [1, 256, 20, 20]> b_1_cast_fp16 = add(x = input_141_cast_fp16, y = var_543_cast_fp16)[name = tensor<string, []>("b_1_cast_fp16")];
            tensor<bool, []> input_147_interleave_0 = const()[name = tensor<string, []>("input_147_interleave_0"), val = tensor<bool, []>(false)];
            tensor<fp16, [1, 512, 20, 20]> input_147_cast_fp16 = concat(axis = var_23, interleave = input_147_interleave_0, values = (var_464_cast_fp16_0, b_1_cast_fp16))[name = tensor<string, []>("input_147_cast_fp16")];
            tensor<string, []> input_149_pad_type_0 = const()[name = tensor<string, []>("input_149_pad_type_0"), val = tensor<string, []>("valid")];
            tensor<int32, [2]> input_149_strides_0 = const()[name = tensor<string, []>("input_149_strides_0"), val = tensor<int32, [2]>([1, 1])];
            tensor<int32, [4]> input_149_pad_0 = const()[name = tensor<string, []>("input_149_pad_0"), val = tensor<int32, [4]>([0, 0, 0, 0])];
            tensor<int32, [2]> input_149_dilations_0 = const()[name = tensor<string, []>("input_149_dilations_0"), val = tensor<int32, [2]>([1, 1])];
            tensor<int32, []> input_149_groups_0 = const()[name = tensor<string, []>("input_149_groups_0"), val = tensor<int32, []>(1)];
            tensor<fp16, [512, 512, 1, 1]> model_model_10_cv2_conv_weight_to_fp16 = const()[name = tensor<string, []>("model_model_10_cv2_conv_weight_to_fp16"), val = tensor<fp16, [512, 512, 1, 1]>(BLOBFILE(path = tensor<string, []>("@model_path/weights/weight.bin"), offset = tensor<uint64, []>(10347008)))];
            tensor<fp16, [512]> model_model_10_cv2_conv_bias_to_fp16 = const()[name = tensor<string, []>("model_model_10_cv2_conv_bias_to_fp16"), val = tensor<fp16, [512]>(BLOBFILE(path = tensor<string, []>("@model_path/weights/weight.bin"), offset = tensor<uint64, []>(10871360)))];
            tensor<fp16, [1, 512, 20, 20]> input_149_cast_fp16 = conv(bias = model_model_10_cv2_conv_bias_to_fp16, dilations = input_149_dilations_0, groups = input_149_groups_0, pad = input_149_pad_0, pad_type = input_149_pad_type_0, strides = input_149_strides_0, weight = model_model_10_cv2_conv_weight_to_fp16, x = input_147_cast_fp16)[name = tensor<string, []>("input_149_cast_fp16")];
            tensor<fp16, [1, 512, 20, 20]> input_151_cast_fp16 = silu(x = input_149_cast_fp16)[name = tensor<string, []>("input_151_cast_fp16")];
            tensor<fp32, []> var_557_scale_factor_height_0 = const()[name = tensor<string, []>("op_557_scale_factor_height_0"), val = tensor<fp32, []>(0x1p+1)];
            tensor<fp32, []> var_557_scale_factor_width_0 = const()[name = tensor<string, []>("op_557_scale_factor_width_0"), val = tensor<fp32, []>(0x1p+1)];
            tensor<fp16, [1, 512, 40, 40]> var_557_cast_fp16 = upsample_nearest_neighbor(scale_factor_height = var_557_scale_factor_height_0, scale_factor_width = var_557_scale_factor_width_0, x = input_151_cast_fp16)[name = tensor<string, []>("op_557_cast_fp16")];
            tensor<bool, []> input_153_interleave_0 = const()[name = tensor<string, []>("input_153_interleave_0"), val = tensor<bool, []>(false)];
            tensor<fp16, [1, 768, 40, 40]> input_153_cast_fp16 = concat(axis = var_23, interleave = input_153_interleave_0, values = (var_557_cast_fp16, input_81_cast_fp16))[name = tensor<string, []>("input_153_cast_fp16")];
            tensor<string, []> input_155_pad_type_0 = const()[name = tensor<string, []>("input_155_pad_type_0"), val = tensor<string, []>("valid")];
            tensor<int32, [2]> input_155_strides_0 = const()[name = tensor<string, []>("input_155_strides_0"), val = tensor<int32, [2]>([1, 1])];
            tensor<int32, [4]> input_155_pad_0 = const()[name = tensor<string, []>("input_155_pad_0"), val = tensor<int32, [4]>([0, 0, 0, 0])];
            tensor<int32, [2]> input_155_dilations_0 = const()[name = tensor<string, []>("input_155_dilations_0"), val = tensor<int32, [2]>([1, 1])];
            tensor<int32, []> input_155_groups_0 = const()[name = tensor<string, []>("input_155_groups_0"), val = tensor<int32, []>(1)];
            tensor<fp16, [256, 768, 1, 1]> model_model_13_cv1_conv_weight_to_fp16 = const()[name = tensor<string, []>("model_model_13_cv1_conv_weight_to_fp16"), val = tensor<fp16, [256, 768, 1, 1]>(BLOBFILE(path = tensor<string, []>("@model_path/weights/weight.bin"), offset = tensor<uint64, []>(10872448)))];
            tensor<fp16, [256]> model_model_13_cv1_conv_bias_to_fp16 = const()[name = tensor<string, []>("model_model_13_cv1_conv_bias_to_fp16"), val = tensor<fp16, [256]>(BLOBFILE(path = tensor<string, []>("@model_path/weights/weight.bin"), offset = tensor<uint64, []>(11265728)))];
            tensor<fp16, [1, 256, 40, 40]> input_155_cast_fp16 = conv(bias = model_model_13_cv1_conv_bias_to_fp16, dilations = input_155_dilations_0, groups = input_155_groups_0, pad = input_155_pad_0, pad_type = input_155_pad_type_0, strides = input_155_strides_0, weight = model_model_13_cv1_conv_weight_to_fp16, x = input_153_cast_fp16)[name = tensor<string, []>("input_155_cast_fp16")];
            tensor<fp16, [1, 256, 40, 40]> var_572_cast_fp16 = silu(x = input_155_cast_fp16)[name = tensor<string, []>("op_572_cast_fp16")];
            tensor<int32, [2]> var_573 = const()[name = tensor<string, []>("op_573"), val = tensor<int32, [2]>([128, 128])];
            tensor<int32, []> var_574_axis_0 = const()[name = tensor<string, []>("op_574_axis_0"), val = tensor<int32, []>(1)];
            tensor<fp16, [1, 128, 40, 40]> var_574_cast_fp16_0, tensor<fp16, [1, 128, 40, 40]> var_574_cast_fp16_1 = split(axis = var_574_axis_0, split_sizes = var_573, x = var_572_cast_fp16)[name = tensor<string, []>("op_574_cast_fp16")];
            tensor<string, []> input_159_pad_type_0 = const()[name = tensor<string, []>("input_159_pad_type_0"), val = tensor<string, []>("custom")];
            tensor<int32, [4]> input_159_pad_0 = const()[name = tensor<string, []>("input_159_pad_0"), val = tensor<int32, [4]>([1, 1, 1, 1])];
            tensor<int32, [2]> input_159_strides_0 = const()[name = tensor<string, []>("input_159_strides_0"), val = tensor<int32, [2]>([1, 1])];
            tensor<int32, [2]> input_159_dilations_0 = const()[name = tensor<string, []>("input_159_dilations_0"), val = tensor<int32, [2]>([1, 1])];
            tensor<int32, []> input_159_groups_0 = const()[name = tensor<string, []>("input_159_groups_0"), val = tensor<int32, []>(1)];
            tensor<fp16, [64, 128, 3, 3]> model_model_13_m_0_cv1_conv_weight_to_fp16 = const()[name = tensor<string, []>("model_model_13_m_0_cv1_conv_weight_to_fp16"), val = tensor<fp16, [64, 128, 3, 3]>(BLOBFILE(path = tensor<string, []>("@model_path/weights/weight.bin"), offset = tensor<uint64, []>(11266304)))];
            tensor<fp16, [64]> model_model_13_m_0_cv1_conv_bias_to_fp16 = const()[name = tensor<string, []>("model_model_13_m_0_cv1_conv_bias_to_fp16"), val = tensor<fp16, [64]>(BLOBFILE(path = tensor<string, []>("@model_path/weights/weight.bin"), offset = tensor<uint64, []>(11413824)))];
            tensor<fp16, [1, 64, 40, 40]> input_159_cast_fp16 = conv(bias = model_model_13_m_0_cv1_conv_bias_to_fp16, dilations = input_159_dilations_0, groups = input_159_groups_0, pad = input_159_pad_0, pad_type = input_159_pad_type_0, strides = input_159_strides_0, weight = model_model_13_m_0_cv1_conv_weight_to_fp16, x = var_574_cast_fp16_1)[name = tensor<string, []>("input_159_cast_fp16")];
            tensor<fp16, [1, 64, 40, 40]> input_161_cast_fp16 = silu(x = input_159_cast_fp16)[name = tensor<string, []>("input_161_cast_fp16")];
            tensor<string, []> input_163_pad_type_0 = const()[name = tensor<string, []>("input_163_pad_type_0"), val = tensor<string, []>("custom")];
            tensor<int32, [4]> input_163_pad_0 = const()[name = tensor<string, []>("input_163_pad_0"), val = tensor<int32, [4]>([1, 1, 1, 1])];
            tensor<int32, [2]> input_163_strides_0 = const()[name = tensor<string, []>("input_163_strides_0"), val = tensor<int32, [2]>([1, 1])];
            tensor<int32, [2]> input_163_dilations_0 = const()[name = tensor<string, []>("input_163_dilations_0"), val = tensor<int32, [2]>([1, 1])];
            tensor<int32, []> input_163_groups_0 = const()[name = tensor<string, []>("input_163_groups_0"), val = tensor<int32, []>(1)];
            tensor<fp16, [128, 64, 3, 3]> model_model_13_m_0_cv2_conv_weight_to_fp16 = const()[name = tensor<string, []>("model_model_13_m_0_cv2_conv_weight_to_fp16"), val = tensor<fp16, [128, 64, 3, 3]>(BLOBFILE(path = tensor<string, []>("@model_path/weights/weight.bin"), offset = tensor<uint64, []>(11414016)))];
            tensor<fp16, [128]> model_model_13_m_0_cv2_conv_bias_to_fp16 = const()[name = tensor<string, []>("model_model_13_m_0_cv2_conv_bias_to_fp16"), val = tensor<fp16, [128]>(BLOBFILE(path = tensor<string, []>("@model_path/weights/weight.bin"), offset = tensor<uint64, []>(11561536)))];
            tensor<fp16, [1, 128, 40, 40]> input_163_cast_fp16 = conv(bias = model_model_13_m_0_cv2_conv_bias_to_fp16, dilations = input_163_dilations_0, groups = input_163_groups_0, pad = input_163_pad_0, pad_type = input_163_pad_type_0, strides = input_163_strides_0, weight = model_model_13_m_0_cv2_conv_weight_to_fp16, x = input_161_cast_fp16)[name = tensor<string, []>("input_163_cast_fp16")];
            tensor<fp16, [1, 128, 40, 40]> var_596_cast_fp16 = silu(x = input_163_cast_fp16)[name = tensor<string, []>("op_596_cast_fp16")];
            tensor<fp16, [1, 128, 40, 40]> var_597_cast_fp16 = add(x = var_574_cast_fp16_1, y = var_596_cast_fp16)[name = tensor<string, []>("op_597_cast_fp16")];
            tensor<bool, []> input_165_interleave_0 = const()[name = tensor<string, []>("input_165_interleave_0"), val = tensor<bool, []>(false)];
            tensor<fp16, [1, 384, 40, 40]> input_165_cast_fp16 = concat(axis = var_23, interleave = input_165_interleave_0, values = (var_574_cast_fp16_0, var_574_cast_fp16_1, var_597_cast_fp16))[name = tensor<string, []>("input_165_cast_fp16")];
            tensor<string, []> input_167_pad_type_0 = const()[name = tensor<string, []>("input_167_pad_type_0"), val = tensor<string, []>("valid")];
            tensor<int32, [2]> input_167_strides_0 = const()[name = tensor<string, []>("input_167_strides_0"), val = tensor<int32, [2]>([1, 1])];
            tensor<int32, [4]> input_167_pad_0 = const()[name = tensor<string, []>("input_167_pad_0"), val = tensor<int32, [4]>([0, 0, 0, 0])];
            tensor<int32, [2]> input_167_dilations_0 = const()[name = tensor<string, []>("input_167_dilations_0"), val = tensor<int32, [2]>([1, 1])];
            tensor<int32, []> input_167_groups_0 = const()[name = tensor<string, []>("input_167_groups_0"), val = tensor<int32, []>(1)];
            tensor<fp16, [256, 384, 1, 1]> model_model_13_cv2_conv_weight_to_fp16 = const()[name = tensor<string, []>("model_model_13_cv2_conv_weight_to_fp16"), val = tensor<fp16, [256, 384, 1, 1]>(BLOBFILE(path = tensor<string, []>("@model_path/weights/weight.bin"), offset = tensor<uint64, []>(11561856)))];
            tensor<fp16, [256]> model_model_13_cv2_conv_bias_to_fp16 = const()[name = tensor<string, []>("model_model_13_cv2_conv_bias_to_fp16"), val = tensor<fp16, [256]>(BLOBFILE(path = tensor<string, []>("@model_path/weights/weight.bin"), offset = tensor<uint64, []>(11758528)))];
            tensor<fp16, [1, 256, 40, 40]> input_167_cast_fp16 = conv(bias = model_model_13_cv2_conv_bias_to_fp16, dilations = input_167_dilations_0, groups = input_167_groups_0, pad = input_167_pad_0, pad_type = input_167_pad_type_0, strides = input_167_strides_0, weight = model_model_13_cv2_conv_weight_to_fp16, x = input_165_cast_fp16)[name = tensor<string, []>("input_167_cast_fp16")];
            tensor<fp16, [1, 256, 40, 40]> input_169_cast_fp16 = silu(x = input_167_cast_fp16)[name = tensor<string, []>("input_169_cast_fp16")];
            tensor<fp32, []> var_610_scale_factor_height_0 = const()[name = tensor<string, []>("op_610_scale_factor_height_0"), val = tensor<fp32, []>(0x1p+1)];
            tensor<fp32, []> var_610_scale_factor_width_0 = const()[name = tensor<string, []>("op_610_scale_factor_width_0"), val = tensor<fp32, []>(0x1p+1)];
            tensor<fp16, [1, 256, 80, 80]> var_610_cast_fp16 = upsample_nearest_neighbor(scale_factor_height = var_610_scale_factor_height_0, scale_factor_width = var_610_scale_factor_width_0, x = input_169_cast_fp16)[name = tensor<string, []>("op_610_cast_fp16")];
            tensor<bool, []> input_171_interleave_0 = const()[name = tensor<string, []>("input_171_interleave_0"), val = tensor<bool, []>(false)];
            tensor<fp16, [1, 512, 80, 80]> input_171_cast_fp16 = concat(axis = var_23, interleave = input_171_interleave_0, values = (var_610_cast_fp16, input_43_cast_fp16))[name = tensor<string, []>("input_171_cast_fp16")];
            tensor<string, []> input_173_pad_type_0 = const()[name = tensor<string, []>("input_173_pad_type_0"), val = tensor<string, []>("valid")];
            tensor<int32, [2]> input_173_strides_0 = const()[name = tensor<string, []>("input_173_strides_0"), val = tensor<int32, [2]>([1, 1])];
            tensor<int32, [4]> input_173_pad_0 = const()[name = tensor<string, []>("input_173_pad_0"), val = tensor<int32, [4]>([0, 0, 0, 0])];
            tensor<int32, [2]> input_173_dilations_0 = const()[name = tensor<string, []>("input_173_dilations_0"), val = tensor<int32, [2]>([1, 1])];
            tensor<int32, []> input_173_groups_0 = const()[name = tensor<string, []>("input_173_groups_0"), val = tensor<int32, []>(1)];
            tensor<fp16, [128, 512, 1, 1]> model_model_16_cv1_conv_weight_to_fp16 = const()[name = tensor<string, []>("model_model_16_cv1_conv_weight_to_fp16"), val = tensor<fp16, [128, 512, 1, 1]>(BLOBFILE(path = tensor<string, []>("@model_path/weights/weight.bin"), offset = tensor<uint64, []>(11759104)))];
            tensor<fp16, [128]> model_model_16_cv1_conv_bias_to_fp16 = const()[name = tensor<string, []>("model_model_16_cv1_conv_bias_to_fp16"), val = tensor<fp16, [128]>(BLOBFILE(path = tensor<string, []>("@model_path/weights/weight.bin"), offset = tensor<uint64, []>(11890240)))];
            tensor<fp16, [1, 128, 80, 80]> input_173_cast_fp16 = conv(bias = model_model_16_cv1_conv_bias_to_fp16, dilations = input_173_dilations_0, groups = input_173_groups_0, pad = input_173_pad_0, pad_type = input_173_pad_type_0, strides = input_173_strides_0, weight = model_model_16_cv1_conv_weight_to_fp16, x = input_171_cast_fp16)[name = tensor<string, []>("input_173_cast_fp16")];
            tensor<fp16, [1, 128, 80, 80]> var_625_cast_fp16 = silu(x = input_173_cast_fp16)[name = tensor<string, []>("op_625_cast_fp16")];
            tensor<int32, [2]> var_626 = const()[name = tensor<string, []>("op_626"), val = tensor<int32, [2]>([64, 64])];
            tensor<int32, []> var_627_axis_0 = const()[name = tensor<string, []>("op_627_axis_0"), val = tensor<int32, []>(1)];
            tensor<fp16, [1, 64, 80, 80]> var_627_cast_fp16_0, tensor<fp16, [1, 64, 80, 80]> var_627_cast_fp16_1 = split(axis = var_627_axis_0, split_sizes = var_626, x = var_625_cast_fp16)[name = tensor<string, []>("op_627_cast_fp16")];
            tensor<string, []> input_177_pad_type_0 = const()[name = tensor<string, []>("input_177_pad_type_0"), val = tensor<string, []>("custom")];
            tensor<int32, [4]> input_177_pad_0 = const()[name = tensor<string, []>("input_177_pad_0"), val = tensor<int32, [4]>([1, 1, 1, 1])];
            tensor<int32, [2]> input_177_strides_0 = const()[name = tensor<string, []>("input_177_strides_0"), val = tensor<int32, [2]>([1, 1])];
            tensor<int32, [2]> input_177_dilations_0 = const()[name = tensor<string, []>("input_177_dilations_0"), val = tensor<int32, [2]>([1, 1])];
            tensor<int32, []> input_177_groups_0 = const()[name = tensor<string, []>("input_177_groups_0"), val = tensor<int32, []>(1)];
            tensor<fp16, [32, 64, 3, 3]> model_model_16_m_0_cv1_conv_weight_to_fp16 = const()[name = tensor<string, []>("model_model_16_m_0_cv1_conv_weight_to_fp16"), val = tensor<fp16, [32, 64, 3, 3]>(BLOBFILE(path = tensor<string, []>("@model_path/weights/weight.bin"), offset = tensor<uint64, []>(11890560)))];
            tensor<fp16, [32]> model_model_16_m_0_cv1_conv_bias_to_fp16 = const()[name = tensor<string, []>("model_model_16_m_0_cv1_conv_bias_to_fp16"), val = tensor<fp16, [32]>(BLOBFILE(path = tensor<string, []>("@model_path/weights/weight.bin"), offset = tensor<uint64, []>(11927488)))];
            tensor<fp16, [1, 32, 80, 80]> input_177_cast_fp16 = conv(bias = model_model_16_m_0_cv1_conv_bias_to_fp16, dilations = input_177_dilations_0, groups = input_177_groups_0, pad = input_177_pad_0, pad_type = input_177_pad_type_0, strides = input_177_strides_0, weight = model_model_16_m_0_cv1_conv_weight_to_fp16, x = var_627_cast_fp16_1)[name = tensor<string, []>("input_177_cast_fp16")];
            tensor<fp16, [1, 32, 80, 80]> input_179_cast_fp16 = silu(x = input_177_cast_fp16)[name = tensor<string, []>("input_179_cast_fp16")];
            tensor<string, []> input_181_pad_type_0 = const()[name = tensor<string, []>("input_181_pad_type_0"), val = tensor<string, []>("custom")];
            tensor<int32, [4]> input_181_pad_0 = const()[name = tensor<string, []>("input_181_pad_0"), val = tensor<int32, [4]>([1, 1, 1, 1])];
            tensor<int32, [2]> input_181_strides_0 = const()[name = tensor<string, []>("input_181_strides_0"), val = tensor<int32, [2]>([1, 1])];
            tensor<int32, [2]> input_181_dilations_0 = const()[name = tensor<string, []>("input_181_dilations_0"), val = tensor<int32, [2]>([1, 1])];
            tensor<int32, []> input_181_groups_0 = const()[name = tensor<string, []>("input_181_groups_0"), val = tensor<int32, []>(1)];
            tensor<fp16, [64, 32, 3, 3]> model_model_16_m_0_cv2_conv_weight_to_fp16 = const()[name = tensor<string, []>("model_model_16_m_0_cv2_conv_weight_to_fp16"), val = tensor<fp16, [64, 32, 3, 3]>(BLOBFILE(path = tensor<string, []>("@model_path/weights/weight.bin"), offset = tensor<uint64, []>(11927616)))];
            tensor<fp16, [64]> model_model_16_m_0_cv2_conv_bias_to_fp16 = const()[name = tensor<string, []>("model_model_16_m_0_cv2_conv_bias_to_fp16"), val = tensor<fp16, [64]>(BLOBFILE(path = tensor<string, []>("@model_path/weights/weight.bin"), offset = tensor<uint64, []>(11964544)))];
            tensor<fp16, [1, 64, 80, 80]> input_181_cast_fp16 = conv(bias = model_model_16_m_0_cv2_conv_bias_to_fp16, dilations = input_181_dilations_0, groups = input_181_groups_0, pad = input_181_pad_0, pad_type = input_181_pad_type_0, strides = input_181_strides_0, weight = model_model_16_m_0_cv2_conv_weight_to_fp16, x = input_179_cast_fp16)[name = tensor<string, []>("input_181_cast_fp16")];
            tensor<fp16, [1, 64, 80, 80]> var_649_cast_fp16 = silu(x = input_181_cast_fp16)[name = tensor<string, []>("op_649_cast_fp16")];
            tensor<fp16, [1, 64, 80, 80]> var_650_cast_fp16 = add(x = var_627_cast_fp16_1, y = var_649_cast_fp16)[name = tensor<string, []>("op_650_cast_fp16")];
            tensor<bool, []> input_183_interleave_0 = const()[name = tensor<string, []>("input_183_interleave_0"), val = tensor<bool, []>(false)];
            tensor<fp16, [1, 192, 80, 80]> input_183_cast_fp16 = concat(axis = var_23, interleave = input_183_interleave_0, values = (var_627_cast_fp16_0, var_627_cast_fp16_1, var_650_cast_fp16))[name = tensor<string, []>("input_183_cast_fp16")];
            tensor<string, []> input_185_pad_type_0 = const()[name = tensor<string, []>("input_185_pad_type_0"), val = tensor<string, []>("valid")];
            tensor<int32, [2]> input_185_strides_0 = const()[name = tensor<string, []>("input_185_strides_0"), val = tensor<int32, [2]>([1, 1])];
            tensor<int32, [4]> input_185_pad_0 = const()[name = tensor<string, []>("input_185_pad_0"), val = tensor<int32, [4]>([0, 0, 0, 0])];
            tensor<int32, [2]> input_185_dilations_0 = const()[name = tensor<string, []>("input_185_dilations_0"), val = tensor<int32, [2]>([1, 1])];
            tensor<int32, []> input_185_groups_0 = const()[name = tensor<string, []>("input_185_groups_0"), val = tensor<int32, []>(1)];
            tensor<fp16, [128, 192, 1, 1]> model_model_16_cv2_conv_weight_to_fp16 = const()[name = tensor<string, []>("model_model_16_cv2_conv_weight_to_fp16"), val = tensor<fp16, [128, 192, 1, 1]>(BLOBFILE(path = tensor<string, []>("@model_path/weights/weight.bin"), offset = tensor<uint64, []>(11964736)))];
            tensor<fp16, [128]> model_model_16_cv2_conv_bias_to_fp16 = const()[name = tensor<string, []>("model_model_16_cv2_conv_bias_to_fp16"), val = tensor<fp16, [128]>(BLOBFILE(path = tensor<string, []>("@model_path/weights/weight.bin"), offset = tensor<uint64, []>(12013952)))];
            tensor<fp16, [1, 128, 80, 80]> input_185_cast_fp16 = conv(bias = model_model_16_cv2_conv_bias_to_fp16, dilations = input_185_dilations_0, groups = input_185_groups_0, pad = input_185_pad_0, pad_type = input_185_pad_type_0, strides = input_185_strides_0, weight = model_model_16_cv2_conv_weight_to_fp16, x = input_183_cast_fp16)[name = tensor<string, []>("input_185_cast_fp16")];
            tensor<fp16, [1, 128, 80, 80]> input_187_cast_fp16 = silu(x = input_185_cast_fp16)[name = tensor<string, []>("input_187_cast_fp16")];
            tensor<string, []> input_189_pad_type_0 = const()[name = tensor<string, []>("input_189_pad_type_0"), val = tensor<string, []>("custom")];
            tensor<int32, [4]> input_189_pad_0 = const()[name = tensor<string, []>("input_189_pad_0"), val = tensor<int32, [4]>([1, 1, 1, 1])];
            tensor<int32, [2]> input_189_strides_0 = const()[name = tensor<string, []>("input_189_strides_0"), val = tensor<int32, [2]>([2, 2])];
            tensor<int32, [2]> input_189_dilations_0 = const()[name = tensor<string, []>("input_189_dilations_0"), val = tensor<int32, [2]>([1, 1])];
            tensor<int32, []> input_189_groups_0 = const()[name = tensor<string, []>("input_189_groups_0"), val = tensor<int32, []>(1)];
            tensor<fp16, [128, 128, 3, 3]> model_model_17_conv_weight_to_fp16 = const()[name = tensor<string, []>("model_model_17_conv_weight_to_fp16"), val = tensor<fp16, [128, 128, 3, 3]>(BLOBFILE(path = tensor<string, []>("@model_path/weights/weight.bin"), offset = tensor<uint64, []>(12014272)))];
            tensor<fp16, [128]> model_model_17_conv_bias_to_fp16 = const()[name = tensor<string, []>("model_model_17_conv_bias_to_fp16"), val = tensor<fp16, [128]>(BLOBFILE(path = tensor<string, []>("@model_path/weights/weight.bin"), offset = tensor<uint64, []>(12309248)))];
            tensor<fp16, [1, 128, 40, 40]> input_189_cast_fp16 = conv(bias = model_model_17_conv_bias_to_fp16, dilations = input_189_dilations_0, groups = input_189_groups_0, pad = input_189_pad_0, pad_type = input_189_pad_type_0, strides = input_189_strides_0, weight = model_model_17_conv_weight_to_fp16, x = input_187_cast_fp16)[name = tensor<string, []>("input_189_cast_fp16")];
            tensor<fp16, [1, 128, 40, 40]> var_670_cast_fp16 = silu(x = input_189_cast_fp16)[name = tensor<string, []>("op_670_cast_fp16")];
            tensor<bool, []> input_191_interleave_0 = const()[name = tensor<string, []>("input_191_interleave_0"), val = tensor<bool, []>(false)];
            tensor<fp16, [1, 384, 40, 40]> input_191_cast_fp16 = concat(axis = var_23, interleave = input_191_interleave_0, values = (var_670_cast_fp16, input_169_cast_fp16))[name = tensor<string, []>("input_191_cast_fp16")];
            tensor<string, []> input_193_pad_type_0 = const()[name = tensor<string, []>("input_193_pad_type_0"), val = tensor<string, []>("valid")];
            tensor<int32, [2]> input_193_strides_0 = const()[name = tensor<string, []>("input_193_strides_0"), val = tensor<int32, [2]>([1, 1])];
            tensor<int32, [4]> input_193_pad_0 = const()[name = tensor<string, []>("input_193_pad_0"), val = tensor<int32, [4]>([0, 0, 0, 0])];
            tensor<int32, [2]> input_193_dilations_0 = const()[name = tensor<string, []>("input_193_dilations_0"), val = tensor<int32, [2]>([1, 1])];
            tensor<int32, []> input_193_groups_0 = const()[name = tensor<string, []>("input_193_groups_0"), val = tensor<int32, []>(1)];
            tensor<fp16, [256, 384, 1, 1]> model_model_19_cv1_conv_weight_to_fp16 = const()[name = tensor<string, []>("model_model_19_cv1_conv_weight_to_fp16"), val = tensor<fp16, [256, 384, 1, 1]>(BLOBFILE(path = tensor<string, []>("@model_path/weights/weight.bin"), offset = tensor<uint64, []>(12309568)))];
            tensor<fp16, [256]> model_model_19_cv1_conv_bias_to_fp16 = const()[name = tensor<string, []>("model_model_19_cv1_conv_bias_to_fp16"), val = tensor<fp16, [256]>(BLOBFILE(path = tensor<string, []>("@model_path/weights/weight.bin"), offset = tensor<uint64, []>(12506240)))];
            tensor<fp16, [1, 256, 40, 40]> input_193_cast_fp16 = conv(bias = model_model_19_cv1_conv_bias_to_fp16, dilations = input_193_dilations_0, groups = input_193_groups_0, pad = input_193_pad_0, pad_type = input_193_pad_type_0, strides = input_193_strides_0, weight = model_model_19_cv1_conv_weight_to_fp16, x = input_191_cast_fp16)[name = tensor<string, []>("input_193_cast_fp16")];
            tensor<fp16, [1, 256, 40, 40]> var_685_cast_fp16 = silu(x = input_193_cast_fp16)[name = tensor<string, []>("op_685_cast_fp16")];
            tensor<int32, [2]> var_686 = const()[name = tensor<string, []>("op_686"), val = tensor<int32, [2]>([128, 128])];
            tensor<int32, []> var_687_axis_0 = const()[name = tensor<string, []>("op_687_axis_0"), val = tensor<int32, []>(1)];
            tensor<fp16, [1, 128, 40, 40]> var_687_cast_fp16_0, tensor<fp16, [1, 128, 40, 40]> var_687_cast_fp16_1 = split(axis = var_687_axis_0, split_sizes = var_686, x = var_685_cast_fp16)[name = tensor<string, []>("op_687_cast_fp16")];
            tensor<string, []> input_197_pad_type_0 = const()[name = tensor<string, []>("input_197_pad_type_0"), val = tensor<string, []>("custom")];
            tensor<int32, [4]> input_197_pad_0 = const()[name = tensor<string, []>("input_197_pad_0"), val = tensor<int32, [4]>([1, 1, 1, 1])];
            tensor<int32, [2]> input_197_strides_0 = const()[name = tensor<string, []>("input_197_strides_0"), val = tensor<int32, [2]>([1, 1])];
            tensor<int32, [2]> input_197_dilations_0 = const()[name = tensor<string, []>("input_197_dilations_0"), val = tensor<int32, [2]>([1, 1])];
            tensor<int32, []> input_197_groups_0 = const()[name = tensor<string, []>("input_197_groups_0"), val = tensor<int32, []>(1)];
            tensor<fp16, [64, 128, 3, 3]> model_model_19_m_0_cv1_conv_weight_to_fp16 = const()[name = tensor<string, []>("model_model_19_m_0_cv1_conv_weight_to_fp16"), val = tensor<fp16, [64, 128, 3, 3]>(BLOBFILE(path = tensor<string, []>("@model_path/weights/weight.bin"), offset = tensor<uint64, []>(12506816)))];
            tensor<fp16, [64]> model_model_19_m_0_cv1_conv_bias_to_fp16 = const()[name = tensor<string, []>("model_model_19_m_0_cv1_conv_bias_to_fp16"), val = tensor<fp16, [64]>(BLOBFILE(path = tensor<string, []>("@model_path/weights/weight.bin"), offset = tensor<uint64, []>(12654336)))];
            tensor<fp16, [1, 64, 40, 40]> input_197_cast_fp16 = conv(bias = model_model_19_m_0_cv1_conv_bias_to_fp16, dilations = input_197_dilations_0, groups = input_197_groups_0, pad = input_197_pad_0, pad_type = input_197_pad_type_0, strides = input_197_strides_0, weight = model_model_19_m_0_cv1_conv_weight_to_fp16, x = var_687_cast_fp16_1)[name = tensor<string, []>("input_197_cast_fp16")];
            tensor<fp16, [1, 64, 40, 40]> input_199_cast_fp16 = silu(x = input_197_cast_fp16)[name = tensor<string, []>("input_199_cast_fp16")];
            tensor<string, []> input_201_pad_type_0 = const()[name = tensor<string, []>("input_201_pad_type_0"), val = tensor<string, []>("custom")];
            tensor<int32, [4]> input_201_pad_0 = const()[name = tensor<string, []>("input_201_pad_0"), val = tensor<int32, [4]>([1, 1, 1, 1])];
            tensor<int32, [2]> input_201_strides_0 = const()[name = tensor<string, []>("input_201_strides_0"), val = tensor<int32, [2]>([1, 1])];
            tensor<int32, [2]> input_201_dilations_0 = const()[name = tensor<string, []>("input_201_dilations_0"), val = tensor<int32, [2]>([1, 1])];
            tensor<int32, []> input_201_groups_0 = const()[name = tensor<string, []>("input_201_groups_0"), val = tensor<int32, []>(1)];
            tensor<fp16, [128, 64, 3, 3]> model_model_19_m_0_cv2_conv_weight_to_fp16 = const()[name = tensor<string, []>("model_model_19_m_0_cv2_conv_weight_to_fp16"), val = tensor<fp16, [128, 64, 3, 3]>(BLOBFILE(path = tensor<string, []>("@model_path/weights/weight.bin"), offset = tensor<uint64, []>(12654528)))];
            tensor<fp16, [128]> model_model_19_m_0_cv2_conv_bias_to_fp16 = const()[name = tensor<string, []>("model_model_19_m_0_cv2_conv_bias_to_fp16"), val = tensor<fp16, [128]>(BLOBFILE(path = tensor<string, []>("@model_path/weights/weight.bin"), offset = tensor<uint64, []>(12802048)))];
            tensor<fp16, [1, 128, 40, 40]> input_201_cast_fp16 = conv(bias = model_model_19_m_0_cv2_conv_bias_to_fp16, dilations = input_201_dilations_0, groups = input_201_groups_0, pad = input_201_pad_0, pad_type = input_201_pad_type_0, strides = input_201_strides_0, weight = model_model_19_m_0_cv2_conv_weight_to_fp16, x = input_199_cast_fp16)[name = tensor<string, []>("input_201_cast_fp16")];
            tensor<fp16, [1, 128, 40, 40]> var_709_cast_fp16 = silu(x = input_201_cast_fp16)[name = tensor<string, []>("op_709_cast_fp16")];
            tensor<fp16, [1, 128, 40, 40]> var_710_cast_fp16 = add(x = var_687_cast_fp16_1, y = var_709_cast_fp16)[name = tensor<string, []>("op_710_cast_fp16")];
            tensor<bool, []> input_203_interleave_0 = const()[name = tensor<string, []>("input_203_interleave_0"), val = tensor<bool, []>(false)];
            tensor<fp16, [1, 384, 40, 40]> input_203_cast_fp16 = concat(axis = var_23, interleave = input_203_interleave_0, values = (var_687_cast_fp16_0, var_687_cast_fp16_1, var_710_cast_fp16))[name = tensor<string, []>("input_203_cast_fp16")];
            tensor<string, []> input_205_pad_type_0 = const()[name = tensor<string, []>("input_205_pad_type_0"), val = tensor<string, []>("valid")];
            tensor<int32, [2]> input_205_strides_0 = const()[name = tensor<string, []>("input_205_strides_0"), val = tensor<int32, [2]>([1, 1])];
            tensor<int32, [4]> input_205_pad_0 = const()[name = tensor<string, []>("input_205_pad_0"), val = tensor<int32, [4]>([0, 0, 0, 0])];
            tensor<int32, [2]> input_205_dilations_0 = const()[name = tensor<string, []>("input_205_dilations_0"), val = tensor<int32, [2]>([1, 1])];
            tensor<int32, []> input_205_groups_0 = const()[name = tensor<string, []>("input_205_groups_0"), val = tensor<int32, []>(1)];
            tensor<fp16, [256, 384, 1, 1]> model_model_19_cv2_conv_weight_to_fp16 = const()[name = tensor<string, []>("model_model_19_cv2_conv_weight_to_fp16"), val = tensor<fp16, [256, 384, 1, 1]>(BLOBFILE(path = tensor<string, []>("@model_path/weights/weight.bin"), offset = tensor<uint64, []>(12802368)))];
            tensor<fp16, [256]> model_model_19_cv2_conv_bias_to_fp16 = const()[name = tensor<string, []>("model_model_19_cv2_conv_bias_to_fp16"), val = tensor<fp16, [256]>(BLOBFILE(path = tensor<string, []>("@model_path/weights/weight.bin"), offset = tensor<uint64, []>(12999040)))];
            tensor<fp16, [1, 256, 40, 40]> input_205_cast_fp16 = conv(bias = model_model_19_cv2_conv_bias_to_fp16, dilations = input_205_dilations_0, groups = input_205_groups_0, pad = input_205_pad_0, pad_type = input_205_pad_type_0, strides = input_205_strides_0, weight = model_model_19_cv2_conv_weight_to_fp16, x = input_203_cast_fp16)[name = tensor<string, []>("input_205_cast_fp16")];
            tensor<fp16, [1, 256, 40, 40]> input_207_cast_fp16 = silu(x = input_205_cast_fp16)[name = tensor<string, []>("input_207_cast_fp16")];
            tensor<string, []> input_209_pad_type_0 = const()[name = tensor<string, []>("input_209_pad_type_0"), val = tensor<string, []>("custom")];
            tensor<int32, [4]> input_209_pad_0 = const()[name = tensor<string, []>("input_209_pad_0"), val = tensor<int32, [4]>([1, 1, 1, 1])];
            tensor<int32, [2]> input_209_strides_0 = const()[name = tensor<string, []>("input_209_strides_0"), val = tensor<int32, [2]>([2, 2])];
            tensor<int32, [2]> input_209_dilations_0 = const()[name = tensor<string, []>("input_209_dilations_0"), val = tensor<int32, [2]>([1, 1])];
            tensor<int32, []> input_209_groups_0 = const()[name = tensor<string, []>("input_209_groups_0"), val = tensor<int32, []>(1)];
            tensor<fp16, [256, 256, 3, 3]> model_model_20_conv_weight_to_fp16 = const()[name = tensor<string, []>("model_model_20_conv_weight_to_fp16"), val = tensor<fp16, [256, 256, 3, 3]>(BLOBFILE(path = tensor<string, []>("@model_path/weights/weight.bin"), offset = tensor<uint64, []>(12999616)))];
            tensor<fp16, [256]> model_model_20_conv_bias_to_fp16 = const()[name = tensor<string, []>("model_model_20_conv_bias_to_fp16"), val = tensor<fp16, [256]>(BLOBFILE(path = tensor<string, []>("@model_path/weights/weight.bin"), offset = tensor<uint64, []>(14179328)))];
            tensor<fp16, [1, 256, 20, 20]> input_209_cast_fp16 = conv(bias = model_model_20_conv_bias_to_fp16, dilations = input_209_dilations_0, groups = input_209_groups_0, pad = input_209_pad_0, pad_type = input_209_pad_type_0, strides = input_209_strides_0, weight = model_model_20_conv_weight_to_fp16, x = input_207_cast_fp16)[name = tensor<string, []>("input_209_cast_fp16")];
            tensor<fp16, [1, 256, 20, 20]> var_730_cast_fp16 = silu(x = input_209_cast_fp16)[name = tensor<string, []>("op_730_cast_fp16")];
            tensor<bool, []> input_211_interleave_0 = const()[name = tensor<string, []>("input_211_interleave_0"), val = tensor<bool, []>(false)];
            tensor<fp16, [1, 768, 20, 20]> input_211_cast_fp16 = concat(axis = var_23, interleave = input_211_interleave_0, values = (var_730_cast_fp16, input_151_cast_fp16))[name = tensor<string, []>("input_211_cast_fp16")];
            tensor<string, []> input_213_pad_type_0 = const()[name = tensor<string, []>("input_213_pad_type_0"), val = tensor<string, []>("valid")];
            tensor<int32, [2]> input_213_strides_0 = const()[name = tensor<string, []>("input_213_strides_0"), val = tensor<int32, [2]>([1, 1])];
            tensor<int32, [4]> input_213_pad_0 = const()[name = tensor<string, []>("input_213_pad_0"), val = tensor<int32, [4]>([0, 0, 0, 0])];
            tensor<int32, [2]> input_213_dilations_0 = const()[name = tensor<string, []>("input_213_dilations_0"), val = tensor<int32, [2]>([1, 1])];
            tensor<int32, []> input_213_groups_0 = const()[name = tensor<string, []>("input_213_groups_0"), val = tensor<int32, []>(1)];
            tensor<fp16, [512, 768, 1, 1]> model_model_22_cv1_conv_weight_to_fp16 = const()[name = tensor<string, []>("model_model_22_cv1_conv_weight_to_fp16"), val = tensor<fp16, [512, 768, 1, 1]>(BLOBFILE(path = tensor<string, []>("@model_path/weights/weight.bin"), offset = tensor<uint64, []>(14179904)))];
            tensor<fp16, [512]> model_model_22_cv1_conv_bias_to_fp16 = const()[name = tensor<string, []>("model_model_22_cv1_conv_bias_to_fp16"), val = tensor<fp16, [512]>(BLOBFILE(path = tensor<string, []>("@model_path/weights/weight.bin"), offset = tensor<uint64, []>(14966400)))];
            tensor<fp16, [1, 512, 20, 20]> input_213_cast_fp16 = conv(bias = model_model_22_cv1_conv_bias_to_fp16, dilations = input_213_dilations_0, groups = input_213_groups_0, pad = input_213_pad_0, pad_type = input_213_pad_type_0, strides = input_213_strides_0, weight = model_model_22_cv1_conv_weight_to_fp16, x = input_211_cast_fp16)[name = tensor<string, []>("input_213_cast_fp16")];
            tensor<fp16, [1, 512, 20, 20]> var_745_cast_fp16 = silu(x = input_213_cast_fp16)[name = tensor<string, []>("op_745_cast_fp16")];
            tensor<int32, [2]> var_746 = const()[name = tensor<string, []>("op_746"), val = tensor<int32, [2]>([256, 256])];
            tensor<int32, []> var_747_axis_0 = const()[name = tensor<string, []>("op_747_axis_0"), val = tensor<int32, []>(1)];
            tensor<fp16, [1, 256, 20, 20]> var_747_cast_fp16_0, tensor<fp16, [1, 256, 20, 20]> var_747_cast_fp16_1 = split(axis = var_747_axis_0, split_sizes = var_746, x = var_745_cast_fp16)[name = tensor<string, []>("op_747_cast_fp16")];
            tensor<string, []> input_217_pad_type_0 = const()[name = tensor<string, []>("input_217_pad_type_0"), val = tensor<string, []>("valid")];
            tensor<int32, [2]> input_217_strides_0 = const()[name = tensor<string, []>("input_217_strides_0"), val = tensor<int32, [2]>([1, 1])];
            tensor<int32, [4]> input_217_pad_0 = const()[name = tensor<string, []>("input_217_pad_0"), val = tensor<int32, [4]>([0, 0, 0, 0])];
            tensor<int32, [2]> input_217_dilations_0 = const()[name = tensor<string, []>("input_217_dilations_0"), val = tensor<int32, [2]>([1, 1])];
            tensor<int32, []> input_217_groups_0 = const()[name = tensor<string, []>("input_217_groups_0"), val = tensor<int32, []>(1)];
            tensor<fp16, [128, 256, 1, 1]> model_model_22_m_0_cv1_conv_weight_to_fp16 = const()[name = tensor<string, []>("model_model_22_m_0_cv1_conv_weight_to_fp16"), val = tensor<fp16, [128, 256, 1, 1]>(BLOBFILE(path = tensor<string, []>("@model_path/weights/weight.bin"), offset = tensor<uint64, []>(14967488)))];
            tensor<fp16, [128]> model_model_22_m_0_cv1_conv_bias_to_fp16 = const()[name = tensor<string, []>("model_model_22_m_0_cv1_conv_bias_to_fp16"), val = tensor<fp16, [128]>(BLOBFILE(path = tensor<string, []>("@model_path/weights/weight.bin"), offset = tensor<uint64, []>(15033088)))];
            tensor<fp16, [1, 128, 20, 20]> input_217_cast_fp16 = conv(bias = model_model_22_m_0_cv1_conv_bias_to_fp16, dilations = input_217_dilations_0, groups = input_217_groups_0, pad = input_217_pad_0, pad_type = input_217_pad_type_0, strides = input_217_strides_0, weight = model_model_22_m_0_cv1_conv_weight_to_fp16, x = var_747_cast_fp16_1)[name = tensor<string, []>("input_217_cast_fp16")];
            tensor<fp16, [1, 128, 20, 20]> input_219_cast_fp16 = silu(x = input_217_cast_fp16)[name = tensor<string, []>("input_219_cast_fp16")];
            tensor<string, []> input_221_pad_type_0 = const()[name = tensor<string, []>("input_221_pad_type_0"), val = tensor<string, []>("custom")];
            tensor<int32, [4]> input_221_pad_0 = const()[name = tensor<string, []>("input_221_pad_0"), val = tensor<int32, [4]>([1, 1, 1, 1])];
            tensor<int32, [2]> input_221_strides_0 = const()[name = tensor<string, []>("input_221_strides_0"), val = tensor<int32, [2]>([1, 1])];
            tensor<int32, [2]> input_221_dilations_0 = const()[name = tensor<string, []>("input_221_dilations_0"), val = tensor<int32, [2]>([1, 1])];
            tensor<int32, []> input_221_groups_0 = const()[name = tensor<string, []>("input_221_groups_0"), val = tensor<int32, []>(1)];
            tensor<fp16, [128, 128, 3, 3]> model_model_22_m_0_m_0_cv1_conv_weight_to_fp16 = const()[name = tensor<string, []>("model_model_22_m_0_m_0_cv1_conv_weight_to_fp16"), val = tensor<fp16, [128, 128, 3, 3]>(BLOBFILE(path = tensor<string, []>("@model_path/weights/weight.bin"), offset = tensor<uint64, []>(15033408)))];
            tensor<fp16, [128]> model_model_22_m_0_m_0_cv1_conv_bias_to_fp16 = const()[name = tensor<string, []>("model_model_22_m_0_m_0_cv1_conv_bias_to_fp16"), val = tensor<fp16, [128]>(BLOBFILE(path = tensor<string, []>("@model_path/weights/weight.bin"), offset = tensor<uint64, []>(15328384)))];
            tensor<fp16, [1, 128, 20, 20]> input_221_cast_fp16 = conv(bias = model_model_22_m_0_m_0_cv1_conv_bias_to_fp16, dilations = input_221_dilations_0, groups = input_221_groups_0, pad = input_221_pad_0, pad_type = input_221_pad_type_0, strides = input_221_strides_0, weight = model_model_22_m_0_m_0_cv1_conv_weight_to_fp16, x = input_219_cast_fp16)[name = tensor<string, []>("input_221_cast_fp16")];
            tensor<fp16, [1, 128, 20, 20]> input_223_cast_fp16 = silu(x = input_221_cast_fp16)[name = tensor<string, []>("input_223_cast_fp16")];
            tensor<string, []> input_225_pad_type_0 = const()[name = tensor<string, []>("input_225_pad_type_0"), val = tensor<string, []>("custom")];
            tensor<int32, [4]> input_225_pad_0 = const()[name = tensor<string, []>("input_225_pad_0"), val = tensor<int32, [4]>([1, 1, 1, 1])];
            tensor<int32, [2]> input_225_strides_0 = const()[name = tensor<string, []>("input_225_strides_0"), val = tensor<int32, [2]>([1, 1])];
            tensor<int32, [2]> input_225_dilations_0 = const()[name = tensor<string, []>("input_225_dilations_0"), val = tensor<int32, [2]>([1, 1])];
            tensor<int32, []> input_225_groups_0 = const()[name = tensor<string, []>("input_225_groups_0"), val = tensor<int32, []>(1)];
            tensor<fp16, [128, 128, 3, 3]> model_model_22_m_0_m_0_cv2_conv_weight_to_fp16 = const()[name = tensor<string, []>("model_model_22_m_0_m_0_cv2_conv_weight_to_fp16"), val = tensor<fp16, [128, 128, 3, 3]>(BLOBFILE(path = tensor<string, []>("@model_path/weights/weight.bin"), offset = tensor<uint64, []>(15328704)))];
            tensor<fp16, [128]> model_model_22_m_0_m_0_cv2_conv_bias_to_fp16 = const()[name = tensor<string, []>("model_model_22_m_0_m_0_cv2_conv_bias_to_fp16"), val = tensor<fp16, [128]>(BLOBFILE(path = tensor<string, []>("@model_path/weights/weight.bin"), offset = tensor<uint64, []>(15623680)))];
            tensor<fp16, [1, 128, 20, 20]> input_225_cast_fp16 = conv(bias = model_model_22_m_0_m_0_cv2_conv_bias_to_fp16, dilations = input_225_dilations_0, groups = input_225_groups_0, pad = input_225_pad_0, pad_type = input_225_pad_type_0, strides = input_225_strides_0, weight = model_model_22_m_0_m_0_cv2_conv_weight_to_fp16, x = input_223_cast_fp16)[name = tensor<string, []>("input_225_cast_fp16")];
            tensor<fp16, [1, 128, 20, 20]> var_784_cast_fp16 = silu(x = input_225_cast_fp16)[name = tensor<string, []>("op_784_cast_fp16")];
            tensor<fp16, [1, 128, 20, 20]> input_227_cast_fp16 = add(x = input_219_cast_fp16, y = var_784_cast_fp16)[name = tensor<string, []>("input_227_cast_fp16")];
            tensor<string, []> input_229_pad_type_0 = const()[name = tensor<string, []>("input_229_pad_type_0"), val = tensor<string, []>("custom")];
            tensor<int32, [4]> input_229_pad_0 = const()[name = tensor<string, []>("input_229_pad_0"), val = tensor<int32, [4]>([1, 1, 1, 1])];
            tensor<int32, [2]> input_229_strides_0 = const()[name = tensor<string, []>("input_229_strides_0"), val = tensor<int32, [2]>([1, 1])];
            tensor<int32, [2]> input_229_dilations_0 = const()[name = tensor<string, []>("input_229_dilations_0"), val = tensor<int32, [2]>([1, 1])];
            tensor<int32, []> input_229_groups_0 = const()[name = tensor<string, []>("input_229_groups_0"), val = tensor<int32, []>(1)];
            tensor<fp16, [128, 128, 3, 3]> model_model_22_m_0_m_1_cv1_conv_weight_to_fp16 = const()[name = tensor<string, []>("model_model_22_m_0_m_1_cv1_conv_weight_to_fp16"), val = tensor<fp16, [128, 128, 3, 3]>(BLOBFILE(path = tensor<string, []>("@model_path/weights/weight.bin"), offset = tensor<uint64, []>(15624000)))];
            tensor<fp16, [128]> model_model_22_m_0_m_1_cv1_conv_bias_to_fp16 = const()[name = tensor<string, []>("model_model_22_m_0_m_1_cv1_conv_bias_to_fp16"), val = tensor<fp16, [128]>(BLOBFILE(path = tensor<string, []>("@model_path/weights/weight.bin"), offset = tensor<uint64, []>(15918976)))];
            tensor<fp16, [1, 128, 20, 20]> input_229_cast_fp16 = conv(bias = model_model_22_m_0_m_1_cv1_conv_bias_to_fp16, dilations = input_229_dilations_0, groups = input_229_groups_0, pad = input_229_pad_0, pad_type = input_229_pad_type_0, strides = input_229_strides_0, weight = model_model_22_m_0_m_1_cv1_conv_weight_to_fp16, x = input_227_cast_fp16)[name = tensor<string, []>("input_229_cast_fp16")];
            tensor<fp16, [1, 128, 20, 20]> input_231_cast_fp16 = silu(x = input_229_cast_fp16)[name = tensor<string, []>("input_231_cast_fp16")];
            tensor<string, []> input_233_pad_type_0 = const()[name = tensor<string, []>("input_233_pad_type_0"), val = tensor<string, []>("custom")];
            tensor<int32, [4]> input_233_pad_0 = const()[name = tensor<string, []>("input_233_pad_0"), val = tensor<int32, [4]>([1, 1, 1, 1])];
            tensor<int32, [2]> input_233_strides_0 = const()[name = tensor<string, []>("input_233_strides_0"), val = tensor<int32, [2]>([1, 1])];
            tensor<int32, [2]> input_233_dilations_0 = const()[name = tensor<string, []>("input_233_dilations_0"), val = tensor<int32, [2]>([1, 1])];
            tensor<int32, []> input_233_groups_0 = const()[name = tensor<string, []>("input_233_groups_0"), val = tensor<int32, []>(1)];
            tensor<fp16, [128, 128, 3, 3]> model_model_22_m_0_m_1_cv2_conv_weight_to_fp16 = const()[name = tensor<string, []>("model_model_22_m_0_m_1_cv2_conv_weight_to_fp16"), val = tensor<fp16, [128, 128, 3, 3]>(BLOBFILE(path = tensor<string, []>("@model_path/weights/weight.bin"), offset = tensor<uint64, []>(15919296)))];
            tensor<fp16, [128]> model_model_22_m_0_m_1_cv2_conv_bias_to_fp16 = const()[name = tensor<string, []>("model_model_22_m_0_m_1_cv2_conv_bias_to_fp16"), val = tensor<fp16, [128]>(BLOBFILE(path = tensor<string, []>("@model_path/weights/weight.bin"), offset = tensor<uint64, []>(16214272)))];
            tensor<fp16, [1, 128, 20, 20]> input_233_cast_fp16 = conv(bias = model_model_22_m_0_m_1_cv2_conv_bias_to_fp16, dilations = input_233_dilations_0, groups = input_233_groups_0, pad = input_233_pad_0, pad_type = input_233_pad_type_0, strides = input_233_strides_0, weight = model_model_22_m_0_m_1_cv2_conv_weight_to_fp16, x = input_231_cast_fp16)[name = tensor<string, []>("input_233_cast_fp16")];
            tensor<fp16, [1, 128, 20, 20]> var_805_cast_fp16 = silu(x = input_233_cast_fp16)[name = tensor<string, []>("op_805_cast_fp16")];
            tensor<fp16, [1, 128, 20, 20]> var_806_cast_fp16 = add(x = input_227_cast_fp16, y = var_805_cast_fp16)[name = tensor<string, []>("op_806_cast_fp16")];
            tensor<string, []> input_235_pad_type_0 = const()[name = tensor<string, []>("input_235_pad_type_0"), val = tensor<string, []>("valid")];
            tensor<int32, [2]> input_235_strides_0 = const()[name = tensor<string, []>("input_235_strides_0"), val = tensor<int32, [2]>([1, 1])];
            tensor<int32, [4]> input_235_pad_0 = const()[name = tensor<string, []>("input_235_pad_0"), val = tensor<int32, [4]>([0, 0, 0, 0])];
            tensor<int32, [2]> input_235_dilations_0 = const()[name = tensor<string, []>("input_235_dilations_0"), val = tensor<int32, [2]>([1, 1])];
            tensor<int32, []> input_235_groups_0 = const()[name = tensor<string, []>("input_235_groups_0"), val = tensor<int32, []>(1)];
            tensor<fp16, [128, 256, 1, 1]> model_model_22_m_0_cv2_conv_weight_to_fp16 = const()[name = tensor<string, []>("model_model_22_m_0_cv2_conv_weight_to_fp16"), val = tensor<fp16, [128, 256, 1, 1]>(BLOBFILE(path = tensor<string, []>("@model_path/weights/weight.bin"), offset = tensor<uint64, []>(16214592)))];
            tensor<fp16, [128]> model_model_22_m_0_cv2_conv_bias_to_fp16 = const()[name = tensor<string, []>("model_model_22_m_0_cv2_conv_bias_to_fp16"), val = tensor<fp16, [128]>(BLOBFILE(path = tensor<string, []>("@model_path/weights/weight.bin"), offset = tensor<uint64, []>(16280192)))];
            tensor<fp16, [1, 128, 20, 20]> input_235_cast_fp16 = conv(bias = model_model_22_m_0_cv2_conv_bias_to_fp16, dilations = input_235_dilations_0, groups = input_235_groups_0, pad = input_235_pad_0, pad_type = input_235_pad_type_0, strides = input_235_strides_0, weight = model_model_22_m_0_cv2_conv_weight_to_fp16, x = var_747_cast_fp16_1)[name = tensor<string, []>("input_235_cast_fp16")];
            tensor<fp16, [1, 128, 20, 20]> var_815_cast_fp16 = silu(x = input_235_cast_fp16)[name = tensor<string, []>("op_815_cast_fp16")];
            tensor<bool, []> input_237_interleave_0 = const()[name = tensor<string, []>("input_237_interleave_0"), val = tensor<bool, []>(false)];
            tensor<fp16, [1, 256, 20, 20]> input_237_cast_fp16 = concat(axis = var_23, interleave = input_237_interleave_0, values = (var_806_cast_fp16, var_815_cast_fp16))[name = tensor<string, []>("input_237_cast_fp16")];
            tensor<string, []> input_239_pad_type_0 = const()[name = tensor<string, []>("input_239_pad_type_0"), val = tensor<string, []>("valid")];
            tensor<int32, [2]> input_239_strides_0 = const()[name = tensor<string, []>("input_239_strides_0"), val = tensor<int32, [2]>([1, 1])];
            tensor<int32, [4]> input_239_pad_0 = const()[name = tensor<string, []>("input_239_pad_0"), val = tensor<int32, [4]>([0, 0, 0, 0])];
            tensor<int32, [2]> input_239_dilations_0 = const()[name = tensor<string, []>("input_239_dilations_0"), val = tensor<int32, [2]>([1, 1])];
            tensor<int32, []> input_239_groups_0 = const()[name = tensor<string, []>("input_239_groups_0"), val = tensor<int32, []>(1)];
            tensor<fp16, [256, 256, 1, 1]> model_model_22_m_0_cv3_conv_weight_to_fp16 = const()[name = tensor<string, []>("model_model_22_m_0_cv3_conv_weight_to_fp16"), val = tensor<fp16, [256, 256, 1, 1]>(BLOBFILE(path = tensor<string, []>("@model_path/weights/weight.bin"), offset = tensor<uint64, []>(16280512)))];
            tensor<fp16, [256]> model_model_22_m_0_cv3_conv_bias_to_fp16 = const()[name = tensor<string, []>("model_model_22_m_0_cv3_conv_bias_to_fp16"), val = tensor<fp16, [256]>(BLOBFILE(path = tensor<string, []>("@model_path/weights/weight.bin"), offset = tensor<uint64, []>(16411648)))];
            tensor<fp16, [1, 256, 20, 20]> input_239_cast_fp16 = conv(bias = model_model_22_m_0_cv3_conv_bias_to_fp16, dilations = input_239_dilations_0, groups = input_239_groups_0, pad = input_239_pad_0, pad_type = input_239_pad_type_0, strides = input_239_strides_0, weight = model_model_22_m_0_cv3_conv_weight_to_fp16, x = input_237_cast_fp16)[name = tensor<string, []>("input_239_cast_fp16")];
            tensor<fp16, [1, 256, 20, 20]> var_826_cast_fp16 = silu(x = input_239_cast_fp16)[name = tensor<string, []>("op_826_cast_fp16")];
            tensor<bool, []> input_241_interleave_0 = const()[name = tensor<string, []>("input_241_interleave_0"), val = tensor<bool, []>(false)];
            tensor<fp16, [1, 768, 20, 20]> input_241_cast_fp16 = concat(axis = var_23, interleave = input_241_interleave_0, values = (var_747_cast_fp16_0, var_747_cast_fp16_1, var_826_cast_fp16))[name = tensor<string, []>("input_241_cast_fp16")];
            tensor<string, []> input_243_pad_type_0 = const()[name = tensor<string, []>("input_243_pad_type_0"), val = tensor<string, []>("valid")];
            tensor<int32, [2]> input_243_strides_0 = const()[name = tensor<string, []>("input_243_strides_0"), val = tensor<int32, [2]>([1, 1])];
            tensor<int32, [4]> input_243_pad_0 = const()[name = tensor<string, []>("input_243_pad_0"), val = tensor<int32, [4]>([0, 0, 0, 0])];
            tensor<int32, [2]> input_243_dilations_0 = const()[name = tensor<string, []>("input_243_dilations_0"), val = tensor<int32, [2]>([1, 1])];
            tensor<int32, []> input_243_groups_0 = const()[name = tensor<string, []>("input_243_groups_0"), val = tensor<int32, []>(1)];
            tensor<fp16, [512, 768, 1, 1]> model_model_22_cv2_conv_weight_to_fp16 = const()[name = tensor<string, []>("model_model_22_cv2_conv_weight_to_fp16"), val = tensor<fp16, [512, 768, 1, 1]>(BLOBFILE(path = tensor<string, []>("@model_path/weights/weight.bin"), offset = tensor<uint64, []>(16412224)))];
            tensor<fp16, [512]> model_model_22_cv2_conv_bias_to_fp16 = const()[name = tensor<string, []>("model_model_22_cv2_conv_bias_to_fp16"), val = tensor<fp16, [512]>(BLOBFILE(path = tensor<string, []>("@model_path/weights/weight.bin"), offset = tensor<uint64, []>(17198720)))];
            tensor<fp16, [1, 512, 20, 20]> input_243_cast_fp16 = conv(bias = model_model_22_cv2_conv_bias_to_fp16, dilations = input_243_dilations_0, groups = input_243_groups_0, pad = input_243_pad_0, pad_type = input_243_pad_type_0, strides = input_243_strides_0, weight = model_model_22_cv2_conv_weight_to_fp16, x = input_241_cast_fp16)[name = tensor<string, []>("input_243_cast_fp16")];
            tensor<fp16, [1, 512, 20, 20]> input_293_cast_fp16 = silu(x = input_243_cast_fp16)[name = tensor<string, []>("input_293_cast_fp16")];
            tensor<string, []> input_245_pad_type_0 = const()[name = tensor<string, []>("input_245_pad_type_0"), val = tensor<string, []>("custom")];
            tensor<int32, [4]> input_245_pad_0 = const()[name = tensor<string, []>("input_245_pad_0"), val = tensor<int32, [4]>([1, 1, 1, 1])];
            tensor<int32, [2]> input_245_strides_0 = const()[name = tensor<string, []>("input_245_strides_0"), val = tensor<int32, [2]>([1, 1])];
            tensor<int32, [2]> input_245_dilations_0 = const()[name = tensor<string, []>("input_245_dilations_0"), val = tensor<int32, [2]>([1, 1])];
            tensor<int32, []> input_245_groups_0 = const()[name = tensor<string, []>("input_245_groups_0"), val = tensor<int32, []>(1)];
            tensor<fp16, [64, 128, 3, 3]> model_model_23_cv2_0_0_conv_weight_to_fp16 = const()[name = tensor<string, []>("model_model_23_cv2_0_0_conv_weight_to_fp16"), val = tensor<fp16, [64, 128, 3, 3]>(BLOBFILE(path = tensor<string, []>("@model_path/weights/weight.bin"), offset = tensor<uint64, []>(17199808)))];
            tensor<fp16, [64]> model_model_23_cv2_0_0_conv_bias_to_fp16 = const()[name = tensor<string, []>("model_model_23_cv2_0_0_conv_bias_to_fp16"), val = tensor<fp16, [64]>(BLOBFILE(path = tensor<string, []>("@model_path/weights/weight.bin"), offset = tensor<uint64, []>(17347328)))];
            tensor<fp16, [1, 64, 80, 80]> input_245_cast_fp16 = conv(bias = model_model_23_cv2_0_0_conv_bias_to_fp16, dilations = input_245_dilations_0, groups = input_245_groups_0, pad = input_245_pad_0, pad_type = input_245_pad_type_0, strides = input_245_strides_0, weight = model_model_23_cv2_0_0_conv_weight_to_fp16, x = input_187_cast_fp16)[name = tensor<string, []>("input_245_cast_fp16")];
            tensor<fp16, [1, 64, 80, 80]> input_247_cast_fp16 = silu(x = input_245_cast_fp16)[name = tensor<string, []>("input_247_cast_fp16")];
            tensor<string, []> input_249_pad_type_0 = const()[name = tensor<string, []>("input_249_pad_type_0"), val = tensor<string, []>("custom")];
            tensor<int32, [4]> input_249_pad_0 = const()[name = tensor<string, []>("input_249_pad_0"), val = tensor<int32, [4]>([1, 1, 1, 1])];
            tensor<int32, [2]> input_249_strides_0 = const()[name = tensor<string, []>("input_249_strides_0"), val = tensor<int32, [2]>([1, 1])];
            tensor<int32, [2]> input_249_dilations_0 = const()[name = tensor<string, []>("input_249_dilations_0"), val = tensor<int32, [2]>([1, 1])];
            tensor<int32, []> input_249_groups_0 = const()[name = tensor<string, []>("input_249_groups_0"), val = tensor<int32, []>(1)];
            tensor<fp16, [64, 64, 3, 3]> model_model_23_cv2_0_1_conv_weight_to_fp16 = const()[name = tensor<string, []>("model_model_23_cv2_0_1_conv_weight_to_fp16"), val = tensor<fp16, [64, 64, 3, 3]>(BLOBFILE(path = tensor<string, []>("@model_path/weights/weight.bin"), offset = tensor<uint64, []>(17347520)))];
            tensor<fp16, [64]> model_model_23_cv2_0_1_conv_bias_to_fp16 = const()[name = tensor<string, []>("model_model_23_cv2_0_1_conv_bias_to_fp16"), val = tensor<fp16, [64]>(BLOBFILE(path = tensor<string, []>("@model_path/weights/weight.bin"), offset = tensor<uint64, []>(17421312)))];
            tensor<fp16, [1, 64, 80, 80]> input_249_cast_fp16 = conv(bias = model_model_23_cv2_0_1_conv_bias_to_fp16, dilations = input_249_dilations_0, groups = input_249_groups_0, pad = input_249_pad_0, pad_type = input_249_pad_type_0, strides = input_249_strides_0, weight = model_model_23_cv2_0_1_conv_weight_to_fp16, x = input_247_cast_fp16)[name = tensor<string, []>("input_249_cast_fp16")];
            tensor<fp16, [1, 64, 80, 80]> input_251_cast_fp16 = silu(x = input_249_cast_fp16)[name = tensor<string, []>("input_251_cast_fp16")];
            tensor<string, []> var_878_pad_type_0 = const()[name = tensor<string, []>("op_878_pad_type_0"), val = tensor<string, []>("valid")];
            tensor<int32, [2]> var_878_strides_0 = const()[name = tensor<string, []>("op_878_strides_0"), val = tensor<int32, [2]>([1, 1])];
            tensor<int32, [4]> var_878_pad_0 = const()[name = tensor<string, []>("op_878_pad_0"), val = tensor<int32, [4]>([0, 0, 0, 0])];
            tensor<int32, [2]> var_878_dilations_0 = const()[name = tensor<string, []>("op_878_dilations_0"), val = tensor<int32, [2]>([1, 1])];
            tensor<int32, []> var_878_groups_0 = const()[name = tensor<string, []>("op_878_groups_0"), val = tensor<int32, []>(1)];
            tensor<fp16, [64, 64, 1, 1]> model_model_23_cv2_0_2_weight_to_fp16 = const()[name = tensor<string, []>("model_model_23_cv2_0_2_weight_to_fp16"), val = tensor<fp16, [64, 64, 1, 1]>(BLOBFILE(path = tensor<string, []>("@model_path/weights/weight.bin"), offset = tensor<uint64, []>(17421504)))];
            tensor<fp16, [64]> model_model_23_cv2_0_2_bias_to_fp16 = const()[name = tensor<string, []>("model_model_23_cv2_0_2_bias_to_fp16"), val = tensor<fp16, [64]>(BLOBFILE(path = tensor<string, []>("@model_path/weights/weight.bin"), offset = tensor<uint64, []>(17429760)))];
            tensor<fp16, [1, 64, 80, 80]> var_878_cast_fp16 = conv(bias = model_model_23_cv2_0_2_bias_to_fp16, dilations = var_878_dilations_0, groups = var_878_groups_0, pad = var_878_pad_0, pad_type = var_878_pad_type_0, strides = var_878_strides_0, weight = model_model_23_cv2_0_2_weight_to_fp16, x = input_251_cast_fp16)[name = tensor<string, []>("op_878_cast_fp16")];
            tensor<string, []> input_253_pad_type_0 = const()[name = tensor<string, []>("input_253_pad_type_0"), val = tensor<string, []>("custom")];
            tensor<int32, [4]> input_253_pad_0 = const()[name = tensor<string, []>("input_253_pad_0"), val = tensor<int32, [4]>([1, 1, 1, 1])];
            tensor<int32, []> input_253_groups_0 = const()[name = tensor<string, []>("input_253_groups_0"), val = tensor<int32, []>(128)];
            tensor<int32, [2]> input_253_strides_0 = const()[name = tensor<string, []>("input_253_strides_0"), val = tensor<int32, [2]>([1, 1])];
            tensor<int32, [2]> input_253_dilations_0 = const()[name = tensor<string, []>("input_253_dilations_0"), val = tensor<int32, [2]>([1, 1])];
            tensor<fp16, [128, 1, 3, 3]> model_model_23_cv3_0_0_0_conv_weight_to_fp16 = const()[name = tensor<string, []>("model_model_23_cv3_0_0_0_conv_weight_to_fp16"), val = tensor<fp16, [128, 1, 3, 3]>(BLOBFILE(path = tensor<string, []>("@model_path/weights/weight.bin"), offset = tensor<uint64, []>(17429952)))];
            tensor<fp16, [128]> model_model_23_cv3_0_0_0_conv_bias_to_fp16 = const()[name = tensor<string, []>("model_model_23_cv3_0_0_0_conv_bias_to_fp16"), val = tensor<fp16, [128]>(BLOBFILE(path = tensor<string, []>("@model_path/weights/weight.bin"), offset = tensor<uint64, []>(17432320)))];
            tensor<fp16, [1, 128, 80, 80]> input_253_cast_fp16 = conv(bias = model_model_23_cv3_0_0_0_conv_bias_to_fp16, dilations = input_253_dilations_0, groups = input_253_groups_0, pad = input_253_pad_0, pad_type = input_253_pad_type_0, strides = input_253_strides_0, weight = model_model_23_cv3_0_0_0_conv_weight_to_fp16, x = input_187_cast_fp16)[name = tensor<string, []>("input_253_cast_fp16")];
            tensor<fp16, [1, 128, 80, 80]> input_255_cast_fp16 = silu(x = input_253_cast_fp16)[name = tensor<string, []>("input_255_cast_fp16")];
            tensor<string, []> input_257_pad_type_0 = const()[name = tensor<string, []>("input_257_pad_type_0"), val = tensor<string, []>("valid")];
            tensor<int32, [2]> input_257_strides_0 = const()[name = tensor<string, []>("input_257_strides_0"), val = tensor<int32, [2]>([1, 1])];
            tensor<int32, [4]> input_257_pad_0 = const()[name = tensor<string, []>("input_257_pad_0"), val = tensor<int32, [4]>([0, 0, 0, 0])];
            tensor<int32, [2]> input_257_dilations_0 = const()[name = tensor<string, []>("input_257_dilations_0"), val = tensor<int32, [2]>([1, 1])];
            tensor<int32, []> input_257_groups_0 = const()[name = tensor<string, []>("input_257_groups_0"), val = tensor<int32, []>(1)];
            tensor<fp16, [128, 128, 1, 1]> model_model_23_cv3_0_0_1_conv_weight_to_fp16 = const()[name = tensor<string, []>("model_model_23_cv3_0_0_1_conv_weight_to_fp16"), val = tensor<fp16, [128, 128, 1, 1]>(BLOBFILE(path = tensor<string, []>("@model_path/weights/weight.bin"), offset = tensor<uint64, []>(17432640)))];
            tensor<fp16, [128]> model_model_23_cv3_0_0_1_conv_bias_to_fp16 = const()[name = tensor<string, []>("model_model_23_cv3_0_0_1_conv_bias_to_fp16"), val = tensor<fp16, [128]>(BLOBFILE(path = tensor<string, []>("@model_path/weights/weight.bin"), offset = tensor<uint64, []>(17465472)))];
            tensor<fp16, [1, 128, 80, 80]> input_257_cast_fp16 = conv(bias = model_model_23_cv3_0_0_1_conv_bias_to_fp16, dilations = input_257_dilations_0, groups = input_257_groups_0, pad = input_257_pad_0, pad_type = input_257_pad_type_0, strides = input_257_strides_0, weight = model_model_23_cv3_0_0_1_conv_weight_to_fp16, x = input_255_cast_fp16)[name = tensor<string, []>("input_257_cast_fp16")];
            tensor<fp16, [1, 128, 80, 80]> input_259_cast_fp16 = silu(x = input_257_cast_fp16)[name = tensor<string, []>("input_259_cast_fp16")];
            tensor<string, []> input_261_pad_type_0 = const()[name = tensor<string, []>("input_261_pad_type_0"), val = tensor<string, []>("custom")];
            tensor<int32, [4]> input_261_pad_0 = const()[name = tensor<string, []>("input_261_pad_0"), val = tensor<int32, [4]>([1, 1, 1, 1])];
            tensor<int32, []> input_261_groups_0 = const()[name = tensor<string, []>("input_261_groups_0"), val = tensor<int32, []>(128)];
            tensor<int32, [2]> input_261_strides_0 = const()[name = tensor<string, []>("input_261_strides_0"), val = tensor<int32, [2]>([1, 1])];
            tensor<int32, [2]> input_261_dilations_0 = const()[name = tensor<string, []>("input_261_dilations_0"), val = tensor<int32, [2]>([1, 1])];
            tensor<fp16, [128, 1, 3, 3]> model_model_23_cv3_0_1_0_conv_weight_to_fp16 = const()[name = tensor<string, []>("model_model_23_cv3_0_1_0_conv_weight_to_fp16"), val = tensor<fp16, [128, 1, 3, 3]>(BLOBFILE(path = tensor<string, []>("@model_path/weights/weight.bin"), offset = tensor<uint64, []>(17465792)))];
            tensor<fp16, [128]> model_model_23_cv3_0_1_0_conv_bias_to_fp16 = const()[name = tensor<string, []>("model_model_23_cv3_0_1_0_conv_bias_to_fp16"), val = tensor<fp16, [128]>(BLOBFILE(path = tensor<string, []>("@model_path/weights/weight.bin"), offset = tensor<uint64, []>(17468160)))];
            tensor<fp16, [1, 128, 80, 80]> input_261_cast_fp16 = conv(bias = model_model_23_cv3_0_1_0_conv_bias_to_fp16, dilations = input_261_dilations_0, groups = input_261_groups_0, pad = input_261_pad_0, pad_type = input_261_pad_type_0, strides = input_261_strides_0, weight = model_model_23_cv3_0_1_0_conv_weight_to_fp16, x = input_259_cast_fp16)[name = tensor<string, []>("input_261_cast_fp16")];
            tensor<fp16, [1, 128, 80, 80]> input_263_cast_fp16 = silu(x = input_261_cast_fp16)[name = tensor<string, []>("input_263_cast_fp16")];
            tensor<string, []> input_265_pad_type_0 = const()[name = tensor<string, []>("input_265_pad_type_0"), val = tensor<string, []>("valid")];
            tensor<int32, [2]> input_265_strides_0 = const()[name = tensor<string, []>("input_265_strides_0"), val = tensor<int32, [2]>([1, 1])];
            tensor<int32, [4]> input_265_pad_0 = const()[name = tensor<string, []>("input_265_pad_0"), val = tensor<int32, [4]>([0, 0, 0, 0])];
            tensor<int32, [2]> input_265_dilations_0 = const()[name = tensor<string, []>("input_265_dilations_0"), val = tensor<int32, [2]>([1, 1])];
            tensor<int32, []> input_265_groups_0 = const()[name = tensor<string, []>("input_265_groups_0"), val = tensor<int32, []>(1)];
            tensor<fp16, [128, 128, 1, 1]> model_model_23_cv3_0_1_1_conv_weight_to_fp16 = const()[name = tensor<string, []>("model_model_23_cv3_0_1_1_conv_weight_to_fp16"), val = tensor<fp16, [128, 128, 1, 1]>(BLOBFILE(path = tensor<string, []>("@model_path/weights/weight.bin"), offset = tensor<uint64, []>(17468480)))];
            tensor<fp16, [128]> model_model_23_cv3_0_1_1_conv_bias_to_fp16 = const()[name = tensor<string, []>("model_model_23_cv3_0_1_1_conv_bias_to_fp16"), val = tensor<fp16, [128]>(BLOBFILE(path = tensor<string, []>("@model_path/weights/weight.bin"), offset = tensor<uint64, []>(17501312)))];
            tensor<fp16, [1, 128, 80, 80]> input_265_cast_fp16 = conv(bias = model_model_23_cv3_0_1_1_conv_bias_to_fp16, dilations = input_265_dilations_0, groups = input_265_groups_0, pad = input_265_pad_0, pad_type = input_265_pad_type_0, strides = input_265_strides_0, weight = model_model_23_cv3_0_1_1_conv_weight_to_fp16, x = input_263_cast_fp16)[name = tensor<string, []>("input_265_cast_fp16")];
            tensor<fp16, [1, 128, 80, 80]> input_267_cast_fp16 = silu(x = input_265_cast_fp16)[name = tensor<string, []>("input_267_cast_fp16")];
            tensor<string, []> var_928_pad_type_0 = const()[name = tensor<string, []>("op_928_pad_type_0"), val = tensor<string, []>("valid")];
            tensor<int32, [2]> var_928_strides_0 = const()[name = tensor<string, []>("op_928_strides_0"), val = tensor<int32, [2]>([1, 1])];
            tensor<int32, [4]> var_928_pad_0 = const()[name = tensor<string, []>("op_928_pad_0"), val = tensor<int32, [4]>([0, 0, 0, 0])];
            tensor<int32, [2]> var_928_dilations_0 = const()[name = tensor<string, []>("op_928_dilations_0"), val = tensor<int32, [2]>([1, 1])];
            tensor<int32, []> var_928_groups_0 = const()[name = tensor<string, []>("op_928_groups_0"), val = tensor<int32, []>(1)];
            tensor<fp16, [80, 128, 1, 1]> model_model_23_cv3_0_2_weight_to_fp16 = const()[name = tensor<string, []>("model_model_23_cv3_0_2_weight_to_fp16"), val = tensor<fp16, [80, 128, 1, 1]>(BLOBFILE(path = tensor<string, []>("@model_path/weights/weight.bin"), offset = tensor<uint64, []>(17501632)))];
            tensor<fp16, [80]> model_model_23_cv3_0_2_bias_to_fp16 = const()[name = tensor<string, []>("model_model_23_cv3_0_2_bias_to_fp16"), val = tensor<fp16, [80]>(BLOBFILE(path = tensor<string, []>("@model_path/weights/weight.bin"), offset = tensor<uint64, []>(17522176)))];
            tensor<fp16, [1, 80, 80, 80]> var_928_cast_fp16 = conv(bias = model_model_23_cv3_0_2_bias_to_fp16, dilations = var_928_dilations_0, groups = var_928_groups_0, pad = var_928_pad_0, pad_type = var_928_pad_type_0, strides = var_928_strides_0, weight = model_model_23_cv3_0_2_weight_to_fp16, x = input_267_cast_fp16)[name = tensor<string, []>("op_928_cast_fp16")];
            tensor<bool, []> xi_1_interleave_0 = const()[name = tensor<string, []>("xi_1_interleave_0"), val = tensor<bool, []>(false)];
            tensor<fp16, [1, 144, 80, 80]> xi_1_cast_fp16 = concat(axis = var_23, interleave = xi_1_interleave_0, values = (var_878_cast_fp16, var_928_cast_fp16))[name = tensor<string, []>("xi_1_cast_fp16")];
            tensor<string, []> input_269_pad_type_0 = const()[name = tensor<string, []>("input_269_pad_type_0"), val = tensor<string, []>("custom")];
            tensor<int32, [4]> input_269_pad_0 = const()[name = tensor<string, []>("input_269_pad_0"), val = tensor<int32, [4]>([1, 1, 1, 1])];
            tensor<int32, [2]> input_269_strides_0 = const()[name = tensor<string, []>("input_269_strides_0"), val = tensor<int32, [2]>([1, 1])];
            tensor<int32, [2]> input_269_dilations_0 = const()[name = tensor<string, []>("input_269_dilations_0"), val = tensor<int32, [2]>([1, 1])];
            tensor<int32, []> input_269_groups_0 = const()[name = tensor<string, []>("input_269_groups_0"), val = tensor<int32, []>(1)];
            tensor<fp16, [64, 256, 3, 3]> model_model_23_cv2_1_0_conv_weight_to_fp16 = const()[name = tensor<string, []>("model_model_23_cv2_1_0_conv_weight_to_fp16"), val = tensor<fp16, [64, 256, 3, 3]>(BLOBFILE(path = tensor<string, []>("@model_path/weights/weight.bin"), offset = tensor<uint64, []>(17522432)))];
            tensor<fp16, [64]> model_model_23_cv2_1_0_conv_bias_to_fp16 = const()[name = tensor<string, []>("model_model_23_cv2_1_0_conv_bias_to_fp16"), val = tensor<fp16, [64]>(BLOBFILE(path = tensor<string, []>("@model_path/weights/weight.bin"), offset = tensor<uint64, []>(17817408)))];
            tensor<fp16, [1, 64, 40, 40]> input_269_cast_fp16 = conv(bias = model_model_23_cv2_1_0_conv_bias_to_fp16, dilations = input_269_dilations_0, groups = input_269_groups_0, pad = input_269_pad_0, pad_type = input_269_pad_type_0, strides = input_269_strides_0, weight = model_model_23_cv2_1_0_conv_weight_to_fp16, x = input_207_cast_fp16)[name = tensor<string, []>("input_269_cast_fp16")];
            tensor<fp16, [1, 64, 40, 40]> input_271_cast_fp16 = silu(x = input_269_cast_fp16)[name = tensor<string, []>("input_271_cast_fp16")];
            tensor<string, []> input_273_pad_type_0 = const()[name = tensor<string, []>("input_273_pad_type_0"), val = tensor<string, []>("custom")];
            tensor<int32, [4]> input_273_pad_0 = const()[name = tensor<string, []>("input_273_pad_0"), val = tensor<int32, [4]>([1, 1, 1, 1])];
            tensor<int32, [2]> input_273_strides_0 = const()[name = tensor<string, []>("input_273_strides_0"), val = tensor<int32, [2]>([1, 1])];
            tensor<int32, [2]> input_273_dilations_0 = const()[name = tensor<string, []>("input_273_dilations_0"), val = tensor<int32, [2]>([1, 1])];
            tensor<int32, []> input_273_groups_0 = const()[name = tensor<string, []>("input_273_groups_0"), val = tensor<int32, []>(1)];
            tensor<fp16, [64, 64, 3, 3]> model_model_23_cv2_1_1_conv_weight_to_fp16 = const()[name = tensor<string, []>("model_model_23_cv2_1_1_conv_weight_to_fp16"), val = tensor<fp16, [64, 64, 3, 3]>(BLOBFILE(path = tensor<string, []>("@model_path/weights/weight.bin"), offset = tensor<uint64, []>(17817600)))];
            tensor<fp16, [64]> model_model_23_cv2_1_1_conv_bias_to_fp16 = const()[name = tensor<string, []>("model_model_23_cv2_1_1_conv_bias_to_fp16"), val = tensor<fp16, [64]>(BLOBFILE(path = tensor<string, []>("@model_path/weights/weight.bin"), offset = tensor<uint64, []>(17891392)))];
            tensor<fp16, [1, 64, 40, 40]> input_273_cast_fp16 = conv(bias = model_model_23_cv2_1_1_conv_bias_to_fp16, dilations = input_273_dilations_0, groups = input_273_groups_0, pad = input_273_pad_0, pad_type = input_273_pad_type_0, strides = input_273_strides_0, weight = model_model_23_cv2_1_1_conv_weight_to_fp16, x = input_271_cast_fp16)[name = tensor<string, []>("input_273_cast_fp16")];
            tensor<fp16, [1, 64, 40, 40]> input_275_cast_fp16 = silu(x = input_273_cast_fp16)[name = tensor<string, []>("input_275_cast_fp16")];
            tensor<string, []> var_958_pad_type_0 = const()[name = tensor<string, []>("op_958_pad_type_0"), val = tensor<string, []>("valid")];
            tensor<int32, [2]> var_958_strides_0 = const()[name = tensor<string, []>("op_958_strides_0"), val = tensor<int32, [2]>([1, 1])];
            tensor<int32, [4]> var_958_pad_0 = const()[name = tensor<string, []>("op_958_pad_0"), val = tensor<int32, [4]>([0, 0, 0, 0])];
            tensor<int32, [2]> var_958_dilations_0 = const()[name = tensor<string, []>("op_958_dilations_0"), val = tensor<int32, [2]>([1, 1])];
            tensor<int32, []> var_958_groups_0 = const()[name = tensor<string, []>("op_958_groups_0"), val = tensor<int32, []>(1)];
            tensor<fp16, [64, 64, 1, 1]> model_model_23_cv2_1_2_weight_to_fp16 = const()[name = tensor<string, []>("model_model_23_cv2_1_2_weight_to_fp16"), val = tensor<fp16, [64, 64, 1, 1]>(BLOBFILE(path = tensor<string, []>("@model_path/weights/weight.bin"), offset = tensor<uint64, []>(17891584)))];
            tensor<fp16, [64]> model_model_23_cv2_1_2_bias_to_fp16 = const()[name = tensor<string, []>("model_model_23_cv2_1_2_bias_to_fp16"), val = tensor<fp16, [64]>(BLOBFILE(path = tensor<string, []>("@model_path/weights/weight.bin"), offset = tensor<uint64, []>(17899840)))];
            tensor<fp16, [1, 64, 40, 40]> var_958_cast_fp16 = conv(bias = model_model_23_cv2_1_2_bias_to_fp16, dilations = var_958_dilations_0, groups = var_958_groups_0, pad = var_958_pad_0, pad_type = var_958_pad_type_0, strides = var_958_strides_0, weight = model_model_23_cv2_1_2_weight_to_fp16, x = input_275_cast_fp16)[name = tensor<string, []>("op_958_cast_fp16")];
            tensor<string, []> input_277_pad_type_0 = const()[name = tensor<string, []>("input_277_pad_type_0"), val = tensor<string, []>("custom")];
            tensor<int32, [4]> input_277_pad_0 = const()[name = tensor<string, []>("input_277_pad_0"), val = tensor<int32, [4]>([1, 1, 1, 1])];
            tensor<int32, []> input_277_groups_0 = const()[name = tensor<string, []>("input_277_groups_0"), val = tensor<int32, []>(256)];
            tensor<int32, [2]> input_277_strides_0 = const()[name = tensor<string, []>("input_277_strides_0"), val = tensor<int32, [2]>([1, 1])];
            tensor<int32, [2]> input_277_dilations_0 = const()[name = tensor<string, []>("input_277_dilations_0"), val = tensor<int32, [2]>([1, 1])];
            tensor<fp16, [256, 1, 3, 3]> model_model_23_cv3_1_0_0_conv_weight_to_fp16 = const()[name = tensor<string, []>("model_model_23_cv3_1_0_0_conv_weight_to_fp16"), val = tensor<fp16, [256, 1, 3, 3]>(BLOBFILE(path = tensor<string, []>("@model_path/weights/weight.bin"), offset = tensor<uint64, []>(17900032)))];
            tensor<fp16, [256]> model_model_23_cv3_1_0_0_conv_bias_to_fp16 = const()[name = tensor<string, []>("model_model_23_cv3_1_0_0_conv_bias_to_fp16"), val = tensor<fp16, [256]>(BLOBFILE(path = tensor<string, []>("@model_path/weights/weight.bin"), offset = tensor<uint64, []>(17904704)))];
            tensor<fp16, [1, 256, 40, 40]> input_277_cast_fp16 = conv(bias = model_model_23_cv3_1_0_0_conv_bias_to_fp16, dilations = input_277_dilations_0, groups = input_277_groups_0, pad = input_277_pad_0, pad_type = input_277_pad_type_0, strides = input_277_strides_0, weight = model_model_23_cv3_1_0_0_conv_weight_to_fp16, x = input_207_cast_fp16)[name = tensor<string, []>("input_277_cast_fp16")];
            tensor<fp16, [1, 256, 40, 40]> input_279_cast_fp16 = silu(x = input_277_cast_fp16)[name = tensor<string, []>("input_279_cast_fp16")];
            tensor<string, []> input_281_pad_type_0 = const()[name = tensor<string, []>("input_281_pad_type_0"), val = tensor<string, []>("valid")];
            tensor<int32, [2]> input_281_strides_0 = const()[name = tensor<string, []>("input_281_strides_0"), val = tensor<int32, [2]>([1, 1])];
            tensor<int32, [4]> input_281_pad_0 = const()[name = tensor<string, []>("input_281_pad_0"), val = tensor<int32, [4]>([0, 0, 0, 0])];
            tensor<int32, [2]> input_281_dilations_0 = const()[name = tensor<string, []>("input_281_dilations_0"), val = tensor<int32, [2]>([1, 1])];
            tensor<int32, []> input_281_groups_0 = const()[name = tensor<string, []>("input_281_groups_0"), val = tensor<int32, []>(1)];
            tensor<fp16, [128, 256, 1, 1]> model_model_23_cv3_1_0_1_conv_weight_to_fp16 = const()[name = tensor<string, []>("model_model_23_cv3_1_0_1_conv_weight_to_fp16"), val = tensor<fp16, [128, 256, 1, 1]>(BLOBFILE(path = tensor<string, []>("@model_path/weights/weight.bin"), offset = tensor<uint64, []>(17905280)))];
            tensor<fp16, [128]> model_model_23_cv3_1_0_1_conv_bias_to_fp16 = const()[name = tensor<string, []>("model_model_23_cv3_1_0_1_conv_bias_to_fp16"), val = tensor<fp16, [128]>(BLOBFILE(path = tensor<string, []>("@model_path/weights/weight.bin"), offset = tensor<uint64, []>(17970880)))];
            tensor<fp16, [1, 128, 40, 40]> input_281_cast_fp16 = conv(bias = model_model_23_cv3_1_0_1_conv_bias_to_fp16, dilations = input_281_dilations_0, groups = input_281_groups_0, pad = input_281_pad_0, pad_type = input_281_pad_type_0, strides = input_281_strides_0, weight = model_model_23_cv3_1_0_1_conv_weight_to_fp16, x = input_279_cast_fp16)[name = tensor<string, []>("input_281_cast_fp16")];
            tensor<fp16, [1, 128, 40, 40]> input_283_cast_fp16 = silu(x = input_281_cast_fp16)[name = tensor<string, []>("input_283_cast_fp16")];
            tensor<string, []> input_285_pad_type_0 = const()[name = tensor<string, []>("input_285_pad_type_0"), val = tensor<string, []>("custom")];
            tensor<int32, [4]> input_285_pad_0 = const()[name = tensor<string, []>("input_285_pad_0"), val = tensor<int32, [4]>([1, 1, 1, 1])];
            tensor<int32, []> input_285_groups_0 = const()[name = tensor<string, []>("input_285_groups_0"), val = tensor<int32, []>(128)];
            tensor<int32, [2]> input_285_strides_0 = const()[name = tensor<string, []>("input_285_strides_0"), val = tensor<int32, [2]>([1, 1])];
            tensor<int32, [2]> input_285_dilations_0 = const()[name = tensor<string, []>("input_285_dilations_0"), val = tensor<int32, [2]>([1, 1])];
            tensor<fp16, [128, 1, 3, 3]> model_model_23_cv3_1_1_0_conv_weight_to_fp16 = const()[name = tensor<string, []>("model_model_23_cv3_1_1_0_conv_weight_to_fp16"), val = tensor<fp16, [128, 1, 3, 3]>(BLOBFILE(path = tensor<string, []>("@model_path/weights/weight.bin"), offset = tensor<uint64, []>(17971200)))];
            tensor<fp16, [128]> model_model_23_cv3_1_1_0_conv_bias_to_fp16 = const()[name = tensor<string, []>("model_model_23_cv3_1_1_0_conv_bias_to_fp16"), val = tensor<fp16, [128]>(BLOBFILE(path = tensor<string, []>("@model_path/weights/weight.bin"), offset = tensor<uint64, []>(17973568)))];
            tensor<fp16, [1, 128, 40, 40]> input_285_cast_fp16 = conv(bias = model_model_23_cv3_1_1_0_conv_bias_to_fp16, dilations = input_285_dilations_0, groups = input_285_groups_0, pad = input_285_pad_0, pad_type = input_285_pad_type_0, strides = input_285_strides_0, weight = model_model_23_cv3_1_1_0_conv_weight_to_fp16, x = input_283_cast_fp16)[name = tensor<string, []>("input_285_cast_fp16")];
            tensor<fp16, [1, 128, 40, 40]> input_287_cast_fp16 = silu(x = input_285_cast_fp16)[name = tensor<string, []>("input_287_cast_fp16")];
            tensor<string, []> input_289_pad_type_0 = const()[name = tensor<string, []>("input_289_pad_type_0"), val = tensor<string, []>("valid")];
            tensor<int32, [2]> input_289_strides_0 = const()[name = tensor<string, []>("input_289_strides_0"), val = tensor<int32, [2]>([1, 1])];
            tensor<int32, [4]> input_289_pad_0 = const()[name = tensor<string, []>("input_289_pad_0"), val = tensor<int32, [4]>([0, 0, 0, 0])];
            tensor<int32, [2]> input_289_dilations_0 = const()[name = tensor<string, []>("input_289_dilations_0"), val = tensor<int32, [2]>([1, 1])];
            tensor<int32, []> input_289_groups_0 = const()[name = tensor<string, []>("input_289_groups_0"), val = tensor<int32, []>(1)];
            tensor<fp16, [128, 128, 1, 1]> model_model_23_cv3_1_1_1_conv_weight_to_fp16 = const()[name = tensor<string, []>("model_model_23_cv3_1_1_1_conv_weight_to_fp16"), val = tensor<fp16, [128, 128, 1, 1]>(BLOBFILE(path = tensor<string, []>("@model_path/weights/weight.bin"), offset = tensor<uint64, []>(17973888)))];
            tensor<fp16, [128]> model_model_23_cv3_1_1_1_conv_bias_to_fp16 = const()[name = tensor<string, []>("model_model_23_cv3_1_1_1_conv_bias_to_fp16"), val = tensor<fp16, [128]>(BLOBFILE(path = tensor<string, []>("@model_path/weights/weight.bin"), offset = tensor<uint64, []>(18006720)))];
            tensor<fp16, [1, 128, 40, 40]> input_289_cast_fp16 = conv(bias = model_model_23_cv3_1_1_1_conv_bias_to_fp16, dilations = input_289_dilations_0, groups = input_289_groups_0, pad = input_289_pad_0, pad_type = input_289_pad_type_0, strides = input_289_strides_0, weight = model_model_23_cv3_1_1_1_conv_weight_to_fp16, x = input_287_cast_fp16)[name = tensor<string, []>("input_289_cast_fp16")];
            tensor<fp16, [1, 128, 40, 40]> input_291_cast_fp16 = silu(x = input_289_cast_fp16)[name = tensor<string, []>("input_291_cast_fp16")];
            tensor<string, []> var_1008_pad_type_0 = const()[name = tensor<string, []>("op_1008_pad_type_0"), val = tensor<string, []>("valid")];
            tensor<int32, [2]> var_1008_strides_0 = const()[name = tensor<string, []>("op_1008_strides_0"), val = tensor<int32, [2]>([1, 1])];
            tensor<int32, [4]> var_1008_pad_0 = const()[name = tensor<string, []>("op_1008_pad_0"), val = tensor<int32, [4]>([0, 0, 0, 0])];
            tensor<int32, [2]> var_1008_dilations_0 = const()[name = tensor<string, []>("op_1008_dilations_0"), val = tensor<int32, [2]>([1, 1])];
            tensor<int32, []> var_1008_groups_0 = const()[name = tensor<string, []>("op_1008_groups_0"), val = tensor<int32, []>(1)];
            tensor<fp16, [80, 128, 1, 1]> model_model_23_cv3_1_2_weight_to_fp16 = const()[name = tensor<string, []>("model_model_23_cv3_1_2_weight_to_fp16"), val = tensor<fp16, [80, 128, 1, 1]>(BLOBFILE(path = tensor<string, []>("@model_path/weights/weight.bin"), offset = tensor<uint64, []>(18007040)))];
            tensor<fp16, [80]> model_model_23_cv3_1_2_bias_to_fp16 = const()[name = tensor<string, []>("model_model_23_cv3_1_2_bias_to_fp16"), val = tensor<fp16, [80]>(BLOBFILE(path = tensor<string, []>("@model_path/weights/weight.bin"), offset = tensor<uint64, []>(18027584)))];
            tensor<fp16, [1, 80, 40, 40]> var_1008_cast_fp16 = conv(bias = model_model_23_cv3_1_2_bias_to_fp16, dilations = var_1008_dilations_0, groups = var_1008_groups_0, pad = var_1008_pad_0, pad_type = var_1008_pad_type_0, strides = var_1008_strides_0, weight = model_model_23_cv3_1_2_weight_to_fp16, x = input_291_cast_fp16)[name = tensor<string, []>("op_1008_cast_fp16")];
            tensor<bool, []> xi_3_interleave_0 = const()[name = tensor<string, []>("xi_3_interleave_0"), val = tensor<bool, []>(false)];
            tensor<fp16, [1, 144, 40, 40]> xi_3_cast_fp16 = concat(axis = var_23, interleave = xi_3_interleave_0, values = (var_958_cast_fp16, var_1008_cast_fp16))[name = tensor<string, []>("xi_3_cast_fp16")];
            tensor<string, []> input_295_pad_type_0 = const()[name = tensor<string, []>("input_295_pad_type_0"), val = tensor<string, []>("custom")];
            tensor<int32, [4]> input_295_pad_0 = const()[name = tensor<string, []>("input_295_pad_0"), val = tensor<int32, [4]>([1, 1, 1, 1])];
            tensor<int32, [2]> input_295_strides_0 = const()[name = tensor<string, []>("input_295_strides_0"), val = tensor<int32, [2]>([1, 1])];
            tensor<int32, [2]> input_295_dilations_0 = const()[name = tensor<string, []>("input_295_dilations_0"), val = tensor<int32, [2]>([1, 1])];
            tensor<int32, []> input_295_groups_0 = const()[name = tensor<string, []>("input_295_groups_0"), val = tensor<int32, []>(1)];
            tensor<fp16, [64, 512, 3, 3]> model_model_23_cv2_2_0_conv_weight_to_fp16 = const()[name = tensor<string, []>("model_model_23_cv2_2_0_conv_weight_to_fp16"), val = tensor<fp16, [64, 512, 3, 3]>(BLOBFILE(path = tensor<string, []>("@model_path/weights/weight.bin"), offset = tensor<uint64, []>(18027840)))];
            tensor<fp16, [64]> model_model_23_cv2_2_0_conv_bias_to_fp16 = const()[name = tensor<string, []>("model_model_23_cv2_2_0_conv_bias_to_fp16"), val = tensor<fp16, [64]>(BLOBFILE(path = tensor<string, []>("@model_path/weights/weight.bin"), offset = tensor<uint64, []>(18617728)))];
            tensor<fp16, [1, 64, 20, 20]> input_295_cast_fp16 = conv(bias = model_model_23_cv2_2_0_conv_bias_to_fp16, dilations = input_295_dilations_0, groups = input_295_groups_0, pad = input_295_pad_0, pad_type = input_295_pad_type_0, strides = input_295_strides_0, weight = model_model_23_cv2_2_0_conv_weight_to_fp16, x = input_293_cast_fp16)[name = tensor<string, []>("input_295_cast_fp16")];
            tensor<fp16, [1, 64, 20, 20]> input_297_cast_fp16 = silu(x = input_295_cast_fp16)[name = tensor<string, []>("input_297_cast_fp16")];
            tensor<string, []> input_299_pad_type_0 = const()[name = tensor<string, []>("input_299_pad_type_0"), val = tensor<string, []>("custom")];
            tensor<int32, [4]> input_299_pad_0 = const()[name = tensor<string, []>("input_299_pad_0"), val = tensor<int32, [4]>([1, 1, 1, 1])];
            tensor<int32, [2]> input_299_strides_0 = const()[name = tensor<string, []>("input_299_strides_0"), val = tensor<int32, [2]>([1, 1])];
            tensor<int32, [2]> input_299_dilations_0 = const()[name = tensor<string, []>("input_299_dilations_0"), val = tensor<int32, [2]>([1, 1])];
            tensor<int32, []> input_299_groups_0 = const()[name = tensor<string, []>("input_299_groups_0"), val = tensor<int32, []>(1)];
            tensor<fp16, [64, 64, 3, 3]> model_model_23_cv2_2_1_conv_weight_to_fp16 = const()[name = tensor<string, []>("model_model_23_cv2_2_1_conv_weight_to_fp16"), val = tensor<fp16, [64, 64, 3, 3]>(BLOBFILE(path = tensor<string, []>("@model_path/weights/weight.bin"), offset = tensor<uint64, []>(18617920)))];
            tensor<fp16, [64]> model_model_23_cv2_2_1_conv_bias_to_fp16 = const()[name = tensor<string, []>("model_model_23_cv2_2_1_conv_bias_to_fp16"), val = tensor<fp16, [64]>(BLOBFILE(path = tensor<string, []>("@model_path/weights/weight.bin"), offset = tensor<uint64, []>(18691712)))];
            tensor<fp16, [1, 64, 20, 20]> input_299_cast_fp16 = conv(bias = model_model_23_cv2_2_1_conv_bias_to_fp16, dilations = input_299_dilations_0, groups = input_299_groups_0, pad = input_299_pad_0, pad_type = input_299_pad_type_0, strides = input_299_strides_0, weight = model_model_23_cv2_2_1_conv_weight_to_fp16, x = input_297_cast_fp16)[name = tensor<string, []>("input_299_cast_fp16")];
            tensor<fp16, [1, 64, 20, 20]> input_301_cast_fp16 = silu(x = input_299_cast_fp16)[name = tensor<string, []>("input_301_cast_fp16")];
            tensor<string, []> var_1038_pad_type_0 = const()[name = tensor<string, []>("op_1038_pad_type_0"), val = tensor<string, []>("valid")];
            tensor<int32, [2]> var_1038_strides_0 = const()[name = tensor<string, []>("op_1038_strides_0"), val = tensor<int32, [2]>([1, 1])];
            tensor<int32, [4]> var_1038_pad_0 = const()[name = tensor<string, []>("op_1038_pad_0"), val = tensor<int32, [4]>([0, 0, 0, 0])];
            tensor<int32, [2]> var_1038_dilations_0 = const()[name = tensor<string, []>("op_1038_dilations_0"), val = tensor<int32, [2]>([1, 1])];
            tensor<int32, []> var_1038_groups_0 = const()[name = tensor<string, []>("op_1038_groups_0"), val = tensor<int32, []>(1)];
            tensor<fp16, [64, 64, 1, 1]> model_model_23_cv2_2_2_weight_to_fp16 = const()[name = tensor<string, []>("model_model_23_cv2_2_2_weight_to_fp16"), val = tensor<fp16, [64, 64, 1, 1]>(BLOBFILE(path = tensor<string, []>("@model_path/weights/weight.bin"), offset = tensor<uint64, []>(18691904)))];
            tensor<fp16, [64]> model_model_23_cv2_2_2_bias_to_fp16 = const()[name = tensor<string, []>("model_model_23_cv2_2_2_bias_to_fp16"), val = tensor<fp16, [64]>(BLOBFILE(path = tensor<string, []>("@model_path/weights/weight.bin"), offset = tensor<uint64, []>(18700160)))];
            tensor<fp16, [1, 64, 20, 20]> var_1038_cast_fp16 = conv(bias = model_model_23_cv2_2_2_bias_to_fp16, dilations = var_1038_dilations_0, groups = var_1038_groups_0, pad = var_1038_pad_0, pad_type = var_1038_pad_type_0, strides = var_1038_strides_0, weight = model_model_23_cv2_2_2_weight_to_fp16, x = input_301_cast_fp16)[name = tensor<string, []>("op_1038_cast_fp16")];
            tensor<string, []> input_303_pad_type_0 = const()[name = tensor<string, []>("input_303_pad_type_0"), val = tensor<string, []>("custom")];
            tensor<int32, [4]> input_303_pad_0 = const()[name = tensor<string, []>("input_303_pad_0"), val = tensor<int32, [4]>([1, 1, 1, 1])];
            tensor<int32, []> input_303_groups_0 = const()[name = tensor<string, []>("input_303_groups_0"), val = tensor<int32, []>(512)];
            tensor<int32, [2]> input_303_strides_0 = const()[name = tensor<string, []>("input_303_strides_0"), val = tensor<int32, [2]>([1, 1])];
            tensor<int32, [2]> input_303_dilations_0 = const()[name = tensor<string, []>("input_303_dilations_0"), val = tensor<int32, [2]>([1, 1])];
            tensor<fp16, [512, 1, 3, 3]> model_model_23_cv3_2_0_0_conv_weight_to_fp16 = const()[name = tensor<string, []>("model_model_23_cv3_2_0_0_conv_weight_to_fp16"), val = tensor<fp16, [512, 1, 3, 3]>(BLOBFILE(path = tensor<string, []>("@model_path/weights/weight.bin"), offset = tensor<uint64, []>(18700352)))];
            tensor<fp16, [512]> model_model_23_cv3_2_0_0_conv_bias_to_fp16 = const()[name = tensor<string, []>("model_model_23_cv3_2_0_0_conv_bias_to_fp16"), val = tensor<fp16, [512]>(BLOBFILE(path = tensor<string, []>("@model_path/weights/weight.bin"), offset = tensor<uint64, []>(18709632)))];
            tensor<fp16, [1, 512, 20, 20]> input_303_cast_fp16 = conv(bias = model_model_23_cv3_2_0_0_conv_bias_to_fp16, dilations = input_303_dilations_0, groups = input_303_groups_0, pad = input_303_pad_0, pad_type = input_303_pad_type_0, strides = input_303_strides_0, weight = model_model_23_cv3_2_0_0_conv_weight_to_fp16, x = input_293_cast_fp16)[name = tensor<string, []>("input_303_cast_fp16")];
            tensor<fp16, [1, 512, 20, 20]> input_305_cast_fp16 = silu(x = input_303_cast_fp16)[name = tensor<string, []>("input_305_cast_fp16")];
            tensor<string, []> input_307_pad_type_0 = const()[name = tensor<string, []>("input_307_pad_type_0"), val = tensor<string, []>("valid")];
            tensor<int32, [2]> input_307_strides_0 = const()[name = tensor<string, []>("input_307_strides_0"), val = tensor<int32, [2]>([1, 1])];
            tensor<int32, [4]> input_307_pad_0 = const()[name = tensor<string, []>("input_307_pad_0"), val = tensor<int32, [4]>([0, 0, 0, 0])];
            tensor<int32, [2]> input_307_dilations_0 = const()[name = tensor<string, []>("input_307_dilations_0"), val = tensor<int32, [2]>([1, 1])];
            tensor<int32, []> input_307_groups_0 = const()[name = tensor<string, []>("input_307_groups_0"), val = tensor<int32, []>(1)];
            tensor<fp16, [128, 512, 1, 1]> model_model_23_cv3_2_0_1_conv_weight_to_fp16 = const()[name = tensor<string, []>("model_model_23_cv3_2_0_1_conv_weight_to_fp16"), val = tensor<fp16, [128, 512, 1, 1]>(BLOBFILE(path = tensor<string, []>("@model_path/weights/weight.bin"), offset = tensor<uint64, []>(18710720)))];
            tensor<fp16, [128]> model_model_23_cv3_2_0_1_conv_bias_to_fp16 = const()[name = tensor<string, []>("model_model_23_cv3_2_0_1_conv_bias_to_fp16"), val = tensor<fp16, [128]>(BLOBFILE(path = tensor<string, []>("@model_path/weights/weight.bin"), offset = tensor<uint64, []>(18841856)))];
            tensor<fp16, [1, 128, 20, 20]> input_307_cast_fp16 = conv(bias = model_model_23_cv3_2_0_1_conv_bias_to_fp16, dilations = input_307_dilations_0, groups = input_307_groups_0, pad = input_307_pad_0, pad_type = input_307_pad_type_0, strides = input_307_strides_0, weight = model_model_23_cv3_2_0_1_conv_weight_to_fp16, x = input_305_cast_fp16)[name = tensor<string, []>("input_307_cast_fp16")];
            tensor<fp16, [1, 128, 20, 20]> input_309_cast_fp16 = silu(x = input_307_cast_fp16)[name = tensor<string, []>("input_309_cast_fp16")];
            tensor<string, []> input_311_pad_type_0 = const()[name = tensor<string, []>("input_311_pad_type_0"), val = tensor<string, []>("custom")];
            tensor<int32, [4]> input_311_pad_0 = const()[name = tensor<string, []>("input_311_pad_0"), val = tensor<int32, [4]>([1, 1, 1, 1])];
            tensor<int32, []> input_311_groups_0 = const()[name = tensor<string, []>("input_311_groups_0"), val = tensor<int32, []>(128)];
            tensor<int32, [2]> input_311_strides_0 = const()[name = tensor<string, []>("input_311_strides_0"), val = tensor<int32, [2]>([1, 1])];
            tensor<int32, [2]> input_311_dilations_0 = const()[name = tensor<string, []>("input_311_dilations_0"), val = tensor<int32, [2]>([1, 1])];
            tensor<fp16, [128, 1, 3, 3]> model_model_23_cv3_2_1_0_conv_weight_to_fp16 = const()[name = tensor<string, []>("model_model_23_cv3_2_1_0_conv_weight_to_fp16"), val = tensor<fp16, [128, 1, 3, 3]>(BLOBFILE(path = tensor<string, []>("@model_path/weights/weight.bin"), offset = tensor<uint64, []>(18842176)))];
            tensor<fp16, [128]> model_model_23_cv3_2_1_0_conv_bias_to_fp16 = const()[name = tensor<string, []>("model_model_23_cv3_2_1_0_conv_bias_to_fp16"), val = tensor<fp16, [128]>(BLOBFILE(path = tensor<string, []>("@model_path/weights/weight.bin"), offset = tensor<uint64, []>(18844544)))];
            tensor<fp16, [1, 128, 20, 20]> input_311_cast_fp16 = conv(bias = model_model_23_cv3_2_1_0_conv_bias_to_fp16, dilations = input_311_dilations_0, groups = input_311_groups_0, pad = input_311_pad_0, pad_type = input_311_pad_type_0, strides = input_311_strides_0, weight = model_model_23_cv3_2_1_0_conv_weight_to_fp16, x = input_309_cast_fp16)[name = tensor<string, []>("input_311_cast_fp16")];
            tensor<fp16, [1, 128, 20, 20]> input_313_cast_fp16 = silu(x = input_311_cast_fp16)[name = tensor<string, []>("input_313_cast_fp16")];
            tensor<string, []> input_315_pad_type_0 = const()[name = tensor<string, []>("input_315_pad_type_0"), val = tensor<string, []>("valid")];
            tensor<int32, [2]> input_315_strides_0 = const()[name = tensor<string, []>("input_315_strides_0"), val = tensor<int32, [2]>([1, 1])];
            tensor<int32, [4]> input_315_pad_0 = const()[name = tensor<string, []>("input_315_pad_0"), val = tensor<int32, [4]>([0, 0, 0, 0])];
            tensor<int32, [2]> input_315_dilations_0 = const()[name = tensor<string, []>("input_315_dilations_0"), val = tensor<int32, [2]>([1, 1])];
            tensor<int32, []> input_315_groups_0 = const()[name = tensor<string, []>("input_315_groups_0"), val = tensor<int32, []>(1)];
            tensor<fp16, [128, 128, 1, 1]> model_model_23_cv3_2_1_1_conv_weight_to_fp16 = const()[name = tensor<string, []>("model_model_23_cv3_2_1_1_conv_weight_to_fp16"), val = tensor<fp16, [128, 128, 1, 1]>(BLOBFILE(path = tensor<string, []>("@model_path/weights/weight.bin"), offset = tensor<uint64, []>(18844864)))];
            tensor<fp16, [128]> model_model_23_cv3_2_1_1_conv_bias_to_fp16 = const()[name = tensor<string, []>("model_model_23_cv3_2_1_1_conv_bias_to_fp16"), val = tensor<fp16, [128]>(BLOBFILE(path = tensor<string, []>("@model_path/weights/weight.bin"), offset = tensor<uint64, []>(18877696)))];
            tensor<fp16, [1, 128, 20, 20]> input_315_cast_fp16 = conv(bias = model_model_23_cv3_2_1_1_conv_bias_to_fp16, dilations = input_315_dilations_0, groups = input_315_groups_0, pad = input_315_pad_0, pad_type = input_315_pad_type_0, strides = input_315_strides_0, weight = model_model_23_cv3_2_1_1_conv_weight_to_fp16, x = input_313_cast_fp16)[name = tensor<string, []>("input_315_cast_fp16")];
            tensor<fp16, [1, 128, 20, 20]> input_317_cast_fp16 = silu(x = input_315_cast_fp16)[name = tensor<string, []>("input_317_cast_fp16")];
            tensor<string, []> var_1088_pad_type_0 = const()[name = tensor<string, []>("op_1088_pad_type_0"), val = tensor<string, []>("valid")];
            tensor<int32, [2]> var_1088_strides_0 = const()[name = tensor<string, []>("op_1088_strides_0"), val = tensor<int32, [2]>([1, 1])];
            tensor<int32, [4]> var_1088_pad_0 = const()[name = tensor<string, []>("op_1088_pad_0"), val = tensor<int32, [4]>([0, 0, 0, 0])];
            tensor<int32, [2]> var_1088_dilations_0 = const()[name = tensor<string, []>("op_1088_dilations_0"), val = tensor<int32, [2]>([1, 1])];
            tensor<int32, []> var_1088_groups_0 = const()[name = tensor<string, []>("op_1088_groups_0"), val = tensor<int32, []>(1)];
            tensor<fp16, [80, 128, 1, 1]> model_model_23_cv3_2_2_weight_to_fp16 = const()[name = tensor<string, []>("model_model_23_cv3_2_2_weight_to_fp16"), val = tensor<fp16, [80, 128, 1, 1]>(BLOBFILE(path = tensor<string, []>("@model_path/weights/weight.bin"), offset = tensor<uint64, []>(18878016)))];
            tensor<fp16, [80]> model_model_23_cv3_2_2_bias_to_fp16 = const()[name = tensor<string, []>("model_model_23_cv3_2_2_bias_to_fp16"), val = tensor<fp16, [80]>(BLOBFILE(path = tensor<string, []>("@model_path/weights/weight.bin"), offset = tensor<uint64, []>(18898560)))];
            tensor<fp16, [1, 80, 20, 20]> var_1088_cast_fp16 = conv(bias = model_model_23_cv3_2_2_bias_to_fp16, dilations = var_1088_dilations_0, groups = var_1088_groups_0, pad = var_1088_pad_0, pad_type = var_1088_pad_type_0, strides = var_1088_strides_0, weight = model_model_23_cv3_2_2_weight_to_fp16, x = input_317_cast_fp16)[name = tensor<string, []>("op_1088_cast_fp16")];
            tensor<bool, []> xi_interleave_0 = const()[name = tensor<string, []>("xi_interleave_0"), val = tensor<bool, []>(false)];
            tensor<fp16, [1, 144, 20, 20]> xi_cast_fp16 = concat(axis = var_23, interleave = xi_interleave_0, values = (var_1038_cast_fp16, var_1088_cast_fp16))[name = tensor<string, []>("xi_cast_fp16")];
            tensor<int32, [3]> var_1092 = const()[name = tensor<string, []>("op_1092"), val = tensor<int32, [3]>([1, 144, -1])];
            tensor<fp16, [1, 144, 6400]> var_1093_cast_fp16 = reshape(shape = var_1092, x = xi_1_cast_fp16)[name = tensor<string, []>("op_1093_cast_fp16")];
            tensor<int32, [3]> var_1094 = const()[name = tensor<string, []>("op_1094"), val = tensor<int32, [3]>([1, 144, -1])];
            tensor<fp16, [1, 144, 1600]> var_1095_cast_fp16 = reshape(shape = var_1094, x = xi_3_cast_fp16)[name = tensor<string, []>("op_1095_cast_fp16")];
            tensor<int32, [3]> var_1096 = const()[name = tensor<string, []>("op_1096"), val = tensor<int32, [3]>([1, 144, -1])];
            tensor<fp16, [1, 144, 400]> var_1097_cast_fp16 = reshape(shape = var_1096, x = xi_cast_fp16)[name = tensor<string, []>("op_1097_cast_fp16")];
            tensor<bool, []> var_1099_interleave_0 = const()[name = tensor<string, []>("op_1099_interleave_0"), val = tensor<bool, []>(false)];
            tensor<fp16, [1, 144, 8400]> var_1099_cast_fp16 = concat(axis = var_24, interleave = var_1099_interleave_0, values = (var_1093_cast_fp16, var_1095_cast_fp16, var_1097_cast_fp16))[name = tensor<string, []>("op_1099_cast_fp16")];
            tensor<int32, [2]> var_1100 = const()[name = tensor<string, []>("op_1100"), val = tensor<int32, [2]>([64, 80])];
            tensor<int32, []> var_1101_axis_0 = const()[name = tensor<string, []>("op_1101_axis_0"), val = tensor<int32, []>(1)];
            tensor<fp16, [1, 64, 8400]> var_1101_cast_fp16_0, tensor<fp16, [1, 80, 8400]> var_1101_cast_fp16_1 = split(axis = var_1101_axis_0, split_sizes = var_1100, x = var_1099_cast_fp16)[name = tensor<string, []>("op_1101_cast_fp16")];
            tensor<int32, [4]> var_1107 = const()[name = tensor<string, []>("op_1107"), val = tensor<int32, [4]>([1, 4, 16, 8400])];
            tensor<fp16, [1, 4, 16, 8400]> var_1108_cast_fp16 = reshape(shape = var_1107, x = var_1101_cast_fp16_0)[name = tensor<string, []>("op_1108_cast_fp16")];
            tensor<int32, [4]> var_1109_perm_0 = const()[name = tensor<string, []>("op_1109_perm_0"), val = tensor<int32, [4]>([0, 2, 1, 3])];
            tensor<fp16, [1, 16, 4, 8400]> var_1109_cast_fp16 = transpose(perm = var_1109_perm_0, x = var_1108_cast_fp16)[name = tensor<string, []>("transpose_1")];
            tensor<fp16, [1, 16, 4, 8400]> input_cast_fp16 = softmax(axis = var_23, x = var_1109_cast_fp16)[name = tensor<string, []>("input_cast_fp16")];
            tensor<string, []> var_1116_pad_type_0 = const()[name = tensor<string, []>("op_1116_pad_type_0"), val = tensor<string, []>("valid")];
            tensor<int32, [2]> var_1116_strides_0 = const()[name = tensor<string, []>("op_1116_strides_0"), val = tensor<int32, [2]>([1, 1])];
            tensor<int32, [4]> var_1116_pad_0 = const()[name = tensor<string, []>("op_1116_pad_0"), val = tensor<int32, [4]>([0, 0, 0, 0])];
            tensor<int32, [2]> var_1116_dilations_0 = const()[name = tensor<string, []>("op_1116_dilations_0"), val = tensor<int32, [2]>([1, 1])];
            tensor<int32, []> var_1116_groups_0 = const()[name = tensor<string, []>("op_1116_groups_0"), val = tensor<int32, []>(1)];
            tensor<fp16, [1, 16, 1, 1]> model_model_23_dfl_conv_weight_to_fp16 = const()[name = tensor<string, []>("model_model_23_dfl_conv_weight_to_fp16"), val = tensor<fp16, [1, 16, 1, 1]>(BLOBFILE(path = tensor<string, []>("@model_path/weights/weight.bin"), offset = tensor<uint64, []>(18898816)))];
            tensor<fp16, [1, 1, 4, 8400]> var_1116_cast_fp16 = conv(dilations = var_1116_dilations_0, groups = var_1116_groups_0, pad = var_1116_pad_0, pad_type = var_1116_pad_type_0, strides = var_1116_strides_0, weight = model_model_23_dfl_conv_weight_to_fp16, x = input_cast_fp16)[name = tensor<string, []>("op_1116_cast_fp16")];
            tensor<int32, [3]> var_1117 = const()[name = tensor<string, []>("op_1117"), val = tensor<int32, [3]>([1, 4, 8400])];
            tensor<fp16, [1, 4, 8400]> distance_cast_fp16 = reshape(shape = var_1117, x = var_1116_cast_fp16)[name = tensor<string, []>("distance_cast_fp16")];
            tensor<int32, [2]> var_1120_split_sizes_0 = const()[name = tensor<string, []>("op_1120_split_sizes_0"), val = tensor<int32, [2]>([2, 2])];
            tensor<int32, []> var_1120_axis_0 = const()[name = tensor<string, []>("op_1120_axis_0"), val = tensor<int32, []>(1)];
            tensor<fp16, [1, 2, 8400]> var_1120_cast_fp16_0, tensor<fp16, [1, 2, 8400]> var_1120_cast_fp16_1 = split(axis = var_1120_axis_0, split_sizes = var_1120_split_sizes_0, x = distance_cast_fp16)[name = tensor<string, []>("op_1120_cast_fp16")];
            tensor<fp16, [1, 2, 8400]> anchor_points_to_fp16 = const()[name = tensor<string, []>("anchor_points_to_fp16"), val = tensor<fp16, [1, 2, 8400]>(BLOBFILE(path = tensor<string, []>("@model_path/weights/weight.bin"), offset = tensor<uint64, []>(18898944)))];
            tensor<fp16, [1, 2, 8400]> x1y1_cast_fp16 = sub(x = anchor_points_to_fp16, y = var_1120_cast_fp16_0)[name = tensor<string, []>("x1y1_cast_fp16")];
            tensor<fp16, [1, 2, 8400]> x2y2_cast_fp16 = add(x = anchor_points_to_fp16, y = var_1120_cast_fp16_1)[name = tensor<string, []>("x2y2_cast_fp16")];
            tensor<fp16, [1, 2, 8400]> var_1124_cast_fp16 = add(x = x1y1_cast_fp16, y = x2y2_cast_fp16)[name = tensor<string, []>("op_1124_cast_fp16")];
            tensor<fp16, []> _inversed_c_xy_y_0_to_fp16 = const()[name = tensor<string, []>("_inversed_c_xy_y_0_to_fp16"), val = tensor<fp16, []>(0x1p-1)];
            tensor<fp16, [1, 2, 8400]> _inversed_c_xy_cast_fp16 = mul(x = var_1124_cast_fp16, y = _inversed_c_xy_y_0_to_fp16)[name = tensor<string, []>("_inversed_c_xy_cast_fp16")];
            tensor<fp16, [1, 2, 8400]> wh_cast_fp16 = sub(x = x2y2_cast_fp16, y = x1y1_cast_fp16)[name = tensor<string, []>("wh_cast_fp16")];
            tensor<bool, []> var_1129_interleave_0 = const()[name = tensor<string, []>("op_1129_interleave_0"), val = tensor<bool, []>(false)];
            tensor<fp16, [1, 4, 8400]> var_1129_cast_fp16 = concat(axis = var_23, interleave = var_1129_interleave_0, values = (_inversed_c_xy_cast_fp16, wh_cast_fp16))[name = tensor<string, []>("op_1129_cast_fp16")];
            tensor<fp16, [1, 8400]> var_8_to_fp16 = const()[name = tensor<string, []>("op_8_to_fp16"), val = tensor<fp16, [1, 8400]>(BLOBFILE(path = tensor<string, []>("@model_path/weights/weight.bin"), offset = tensor<uint64, []>(18932608)))];
            tensor<fp16, [1, 4, 8400]> dbox_cast_fp16 = mul(x = var_1129_cast_fp16, y = var_8_to_fp16)[name = tensor<string, []>("dbox_cast_fp16")];
            tensor<fp16, [1, 80, 8400]> var_1131_cast_fp16 = sigmoid(x = var_1101_cast_fp16_1)[name = tensor<string, []>("op_1131_cast_fp16")];
            tensor<bool, []> var_1133_interleave_0 = const()[name = tensor<string, []>("op_1133_interleave_0"), val = tensor<bool, []>(false)];
            tensor<fp16, [1, 84, 8400]> var_1133_cast_fp16 = concat(axis = var_23, interleave = var_1133_interleave_0, values = (dbox_cast_fp16, var_1131_cast_fp16))[name = tensor<string, []>("op_1133_cast_fp16")];
            tensor<int32, [3]> var_1136_begin_0 = const()[name = tensor<string, []>("op_1136_begin_0"), val = tensor<int32, [3]>([0, 0, 0])];
            tensor<int32, [3]> var_1136_end_0 = const()[name = tensor<string, []>("op_1136_end_0"), val = tensor<int32, [3]>([1, 84, 8400])];
            tensor<bool, [3]> var_1136_end_mask_0 = const()[name = tensor<string, []>("op_1136_end_mask_0"), val = tensor<bool, [3]>([false, true, true])];
            tensor<bool, [3]> var_1136_squeeze_mask_0 = const()[name = tensor<string, []>("op_1136_squeeze_mask_0"), val = tensor<bool, [3]>([true, false, false])];
            tensor<fp16, [84, 8400]> var_1136_cast_fp16 = slice_by_index(begin = var_1136_begin_0, end = var_1136_end_0, end_mask = var_1136_end_mask_0, squeeze_mask = var_1136_squeeze_mask_0, x = var_1133_cast_fp16)[name = tensor<string, []>("op_1136_cast_fp16")];
            tensor<int32, [2]> var_1139_perm_0 = const()[name = tensor<string, []>("op_1139_perm_0"), val = tensor<int32, [2]>([1, 0])];
            tensor<int32, [2]> var_1142 = const()[name = tensor<string, []>("op_1142"), val = tensor<int32, [2]>([4, 80])];
            tensor<int32, []> var_1144_axis_0 = const()[name = tensor<string, []>("op_1144_axis_0"), val = tensor<int32, []>(1)];
            tensor<fp16, [8400, 84]> var_1139_cast_fp16 = transpose(perm = var_1139_perm_0, x = var_1136_cast_fp16)[name = tensor<string, []>("transpose_0")];
            tensor<fp16, [8400, 4]> var_1144_cast_fp16_0, tensor<fp16, [8400, 80]> var_1144_cast_fp16_1 = split(axis = var_1144_axis_0, split_sizes = var_1142, x = var_1139_cast_fp16)[name = tensor<string, []>("op_1144_cast_fp16")];
            tensor<string, []> var_1144_cast_fp16_1_to_fp32_dtype_0 = const()[name = tensor<string, []>("op_1144_cast_fp16_1_to_fp32_dtype_0"), val = tensor<string, []>("fp32")];
            tensor<fp16, []> var_1147_to_fp16 = const()[name = tensor<string, []>("op_1147_to_fp16"), val = tensor<fp16, []>(0x1.998p-10)];
            tensor<fp16, [8400, 4]> var_1148_cast_fp16 = mul(x = var_1144_cast_fp16_0, y = var_1147_to_fp16)[name = tensor<string, []>("op_1148_cast_fp16")];
            tensor<string, []> var_1148_cast_fp16_to_fp32_dtype_0 = const()[name = tensor<string, []>("op_1148_cast_fp16_to_fp32_dtype_0"), val = tensor<string, []>("fp32")];
            tensor<fp32, [8400, 4]> var_1148 = cast(dtype = var_1148_cast_fp16_to_fp32_dtype_0, x = var_1148_cast_fp16)[name = tensor<string, []>("cast_10")];
            tensor<fp32, [8400, 80]> var_1144_1 = cast(dtype = var_1144_cast_fp16_1_to_fp32_dtype_0, x = var_1144_cast_fp16_1)[name = tensor<string, []>("cast_11")];
        } -> (var_1144_1, var_1148);
}